backend/stock_transformer_model (1).pt (torch, 619903 bytes, 51 tensors)

weight f4 [64, 16]
0	0xbdc0b0b4	-0.094087034
1	0x3c2320d0	0.009956554
2	0x3e1c4df1	0.15264107
3	0xbe18a7ce	-0.14907762
4	0xbe7e20fa	-0.24817267
5	0x3e02be1a	0.1276783
6	0xbe2a693b	-0.16641705
7	0xbdfb38d4	-0.122666985
8	0x3d38098e	0.044930987
9	0x3e3455aa	0.17610803
10	0xbe0c9846	-0.13729963
11	0xbd67265c	-0.056433067
12	0x3df9a2a6	0.12189226
13	0xbe16204b	-0.14660756
14	0xbc4df50b	-0.01257063
15	0xbe2071a5	-0.15668352
16	0xbdbdf7b7	-0.092757635
17	0x3da9eb24	0.08296803
18	0x3c2d21f1	0.010567174
19	0x3d0493ca	0.032367505
20	0xbe1d748b	-0.15376489
21	0x3da37913	0.079820774
22	0xbded302b	-0.11581453
23	0x3e56c764	0.20974499
24	0xbdd54212	-0.104129925
25	0xbbbd75d6	-0.0057818694
26	0xbe5e81c8	-0.21729195
27	0x3cb95717	0.022624535
28	0x3e693ffe	0.22778317
29	0x3a8c5765	0.0010707198
30	0xbe6aeffb	-0.22943108
31	0xbe4bfb88	-0.1992017
32	0x3e548134	0.20752412
33	0xbe81b8ef	-0.25336406
34	0xbb8adff2	-0.004238122
35	0xbe6392b7	-0.22223936
36	0x3e490b92	0.1963332
37	0xbd9d2f91	-0.07675088
38	0xbdb87031	-0.09005774
39	0xbc875f26	-0.016524862
40	0xbd5d936f	-0.05409568
41	0xbd9e0b3d	-0.07716987
42	0x3bba3f85	0.0056838416
43	0xbda43d69	-0.080195256
44	0xbe72e6d5	-0.23720868
45	0x3e5b51e9	0.21417965
46	0x3e03010b	0.12793367
47	0xbd7ee8dc	-0.06223379
48	0x3e6003f8	0.21876514
49	0x3e31f774	0.17379552
50	0x3d583c38	0.052791804
51	0x3d403135	0.046921927
52	0x3e5fe5ce	0.21865007
53	0xbe3cdd50	-0.18443799
54	0xbd895b1f	-0.06706833
55	0x3e620b31	0.22074582
56	0x3e6839b2	0.22678259
57	0x3e3c15ea	0.18367735
58	0x3e1763c1	0.14784147
59	0xbe4dafc8	-0.20086586
60	0x3e27175e	0.16317508
61	0xbd8974e5	-0.06711749
62	0xbd35c4d4	-0.044377163
63	0x3d8f17ed	0.06986985
64	0xbdf53598	-0.11973113
65	0x3e68e046	0.22741804
66	0xbd3a1b2d	-0.045436073
67	0xbe11929d	-0.14216085
68	0x3d57834a	0.05261544
69	0x3e7b542e	0.24543831
70	0x3e324006	0.17407236
71	0xbe7eb349	-0.2487308
72	0xbdc64659	-0.096813865
73	0x3cb30459	0.021852659
74	0xbe659c70	-0.22422957
75	0x3e418506	0.188984
76	0xbe7080bc	-0.23486608
77	0x3e33e1e5	0.1756664
78	0xbe4dcabd	-0.2009687
79	0xbb7b0fed	-0.0038309053
80	0xbd82d51d	-0.063883044
81	0x3cf69f9d	0.030105406
82	0x3e50e3fc	0.20399469
83	0xbe09d3aa	-0.1345965
84	0x3df3d8b3	0.119065665
85	0xbe757ec4	-0.23974138
86	0xbe21cfce	-0.15801927
87	0xbd7e99d6	-0.062158428
88	0xbe66b0c1	-0.22528364
89	0x3daa8e3a	0.08327909
90	0x3d353b81	0.0442462
91	0x3d1dcb00	0.038523674
92	0xbbbda29c	-0.005787207
93	0xbca94e5d	-0.02066725
94	0xbe0512fa	-0.1299552
95	0xbd6945d3	-0.056951355
96	0x3e170962	0.14749673
97	0xbe1b9cfc	-0.15196604
98	0x3e49565b	0.19661848
99	0x3dd51792	0.10404886
100	0xbdd79221	-0.10525919
101	0xbd096b84	-0.0335498
102	0x3db82dfa	0.08993144
103	0xbe6f17d9	-0.23348941
104	0xbde5d6bb	-0.11222597
105	0x3dec2370	0.11530197
106	0x3e42d762	0.19027475
107	0x3da0320b	0.07822045
108	0xbe75dbe1	-0.24009658
109	0x3d8c89f6	0.068622515
110	0xbd8313f6	-0.064002916
111	0x3d8be996	0.06831662
112	0xbe47c5ab	-0.19508998
113	0x3e36aa1a	0.17838326
114	0xbe594b40	-0.21220112
115	0xbdebfe5a	-0.11523123
116	0x3e451c00	0.19248962
117	0x3e44559f	0.19173287
118	0x3de7d070	0.11319053
119	0x3e249416	0.16072115
120	0xbe5ba260	-0.2144866
121	0x3e0084f9	0.12550725
122	0xbdfee979	-0.12446875
123	0xbe00d353	-0.12580614
124	0xbe36ae49	-0.17839922
125	0xbe0d4643	-0.13796334
126	0xbd605b81	-0.054774765
127	0xbd9015bf	-0.07035398
128	0xbe464818	-0.19363439
129	0x3e3a6e72	0.18206194
130	0x3e5c37bf	0.2150564
131	0xbd80da1c	-0.06291601
132	0x3dfdfb7c	0.124014825
133	0xbaa6bee3	-0.0012721684
134	0x3e2fd572	0.17171267
135	0xbdabbc84	-0.08385566
136	0x3e420c0c	0.18949908
137	0xbe76b766	-0.24093398
138	0x3c57a591	0.013162033
139	0xbbe40d7c	-0.0069596153
140	0x3e47bf72	0.19506624
141	0x3da244dd	0.07923291
142	0xbd1b405e	-0.037903182
143	0xbe223373	-0.15839939
144	0xbdcc2f1d	-0.09969924
145	0xbe733053	-0.23748903
146	0xbcdd9394	-0.02704791
147	0xbe671c28	-0.22569335
148	0x3e79b138	0.2438401
149	0xbe604b9e	-0.21903846
150	0xbcf7c06e	-0.030243125
151	0x3e1990d6	0.14996657
152	0xbe3e78d7	-0.18600784
153	0x3e0557df	0.13021801
154	0x3d5812c0	0.052752256
155	0xbdda46ae	-0.10658012
156	0xbdfcbe22	-0.123409525
157	0xbd568118	-0.052369207
158	0xbd783ccf	-0.060604867
159	0xbdb57052	-0.08859314
160	0xbe0b9d36	-0.1363419
161	0x3c3c2f96	0.011485955
162	0xbd24b9b8	-0.040216178
163	0xbe3d5e7b	-0.18493073
164	0x3d00368b	0.031302016
165	0xbd794051	-0.060852353
166	0x3e55af50	0.20867658
167	0x3e506883	0.20352368
168	0x3de15dba	0.11004205
169	0xbdab34ea	-0.08359702
170	0x3e4440f5	0.19165404
171	0xbe706754	-0.23476917
172	0x3e1710bc	0.14752477
173	0x3e40d5e7	0.18831597
174	0xbe496944	-0.19669062
175	0xbdee1ce5	-0.11626605
176	0x3e33563f	0.17513369
177	0x3d2b6d02	0.041852005
178	0xbd67b4a7	-0.056568768
179	0xbd81662e	-0.06318317
180	0xbc6f316d	-0.014599186
181	0x3e11eb07	0.14249812
182	0xbc97514e	-0.018471386
183	0x3c8eab68	0.017415717
184	0xbdc23160	-0.09482074
185	0xbe7ae704	-0.24502188
186	0xbe09840e	-0.13429281
187	0x3b01f75c	0.0019831276
188	0xbdcae821	-0.09907556
189	0x3d34963c	0.044088587
190	0xbd3ea922	-0.046548016
191	0xbe1b288c	-0.15152186
192	0x3e0ce66a	0.13759771
193	0x3e440be5	0.19145162
194	0xbe1dc01b	-0.15405314
195	0xbe104447	-0.14088546
196	0x3e075743	0.13216881
197	0x3dcb0cae	0.09914528
198	0xbe07e908	-0.13272488
199	0xbd9ca0bf	-0.076478474
200	0xbe44c78b	-0.19216745
201	0xbe753e8f	-0.23949645
202	0x3db940de	0.090455756
203	0x3e5dd5c0	0.2166357
204	0x3e31e21f	0.17371415
205	0xbe5e5e5d	-0.21715684
206	0xbd92254e	-0.071360216
207	0x3e495102	0.19659808
208	0x3d4f09a0	0.05054629
209	0x3dad6272	0.084660426
210	0x3c8c97ac	0.017162167
211	0xbe7298f8	-0.23691165
212	0x3e5fa61b	0.21840708
213	0xbe470a26	-0.19437465
214	0x3e45cba8	0.1931597
215	0xbe4d2968	-0.20035326
216	0xbe802d47	-0.25034544
217	0xbd79f6ff	-0.06102657
218	0x3d273993	0.04082639
219	0xbe13ff7e	-0.14452931
220	0xbd9b4a82	-0.075825706
221	0x3d786662	0.060644515
222	0xbdb1f1c5	-0.08688692
223	0xbe4056c7	-0.18783103
224	0xbcaaca01	-0.020848276
225	0x3d2db904	0.042412773
226	0xbc464dc6	-0.012103504
227	0xbe5f662d	-0.2181632
228	0x3e040ea0	0.12896204
229	0xbe1db5ef	-0.15401433
230	0xbdc1d0a1	-0.09463621
231	0x3e60a835	0.21939166
232	0x3e30623f	0.17224978
233	0x3db2c013	0.087280415
234	0x3e48f873	0.19626026
235	0x3e353aa3	0.1769815
236	0xbcd54d6c	-0.026037894
237	0xbe7cc94d	-0.24686165
238	0xbe5865e1	-0.21132614
239	0x3de77c88	0.11303049
240	0xbd86cb8a	-0.06581791
241	0x3e291a89	0.16514029
242	0x3e1e4fc4	0.15460116
243	0xbe3b89b4	-0.18314248
244	0xbe320050	-0.17382932
245	0xbde41e54	-0.11138597
246	0x3dfc07f7	0.12306207
247	0xbe406d59	-0.18791713
248	0x3d67975c	0.056540832
249	0xbcf5b5d2	-0.029993925
250	0xbe18a5f9	-0.14907064
251	0xbd9ea039	-0.07745404
252	0xbd8ea86f	-0.0696572
253	0x3e252cf4	0.1613043
254	0xbdc51dc0	-0.09624815
255	0xbe24620c	-0.16053027

bias f4 [64]
0	0xbd8de4b1	-0.06928385
1	0x3e41af93	0.18914632
2	0x3d8bbcc9	0.06823117
3	0xbdfe4389	-0.12415225
4	0x3e3249fb	0.17411034
5	0xbe22587c	-0.15854067
6	0xbdf524ec	-0.11969933
7	0x3dc1b274	0.09457865
8	0xbdd253b9	-0.10269875
9	0x3cda14c8	0.026621237
10	0xbe7e9e1e	-0.24865004
11	0x3dc8dc89	0.09807689
12	0x3d57acdd	0.05265509
13	0x3e7ccba4	0.24687058
14	0xbd3373bb	-0.04381154
15	0xbe0f4a54	-0.13993198
16	0x3d65d596	0.056111895
17	0x3d9f58f8	0.07780641
18	0xbe26e781	-0.16299249
19	0x3e0de694	0.1385749
20	0xbe160420	-0.14650011
21	0xbd5040d8	-0.05084309
22	0xbdcffa45	-0.10155157
23	0xbbb96f03	-0.0056589856
24	0xbe6514df	-0.22371243
25	0x3e38b55a	0.1803793
26	0x3e811b54	0.25216162
27	0x3daf53af	0.08560883
28	0x3e699588	0.22810948
29	0xbe814977	-0.25251362
30	0xbe676b6d	-0.22599573
31	0x3e595c5c	0.21226639
32	0xbe2464d6	-0.16054091
33	0xbe0b2dc4	-0.13591677
34	0x3d25876f	0.040412363
35	0x3d979f49	0.07403428
36	0x3e5f10d1	0.21783759
37	0x3dd8ea86	0.10591607
38	0x3e606e0c	0.2191698
39	0xbd334ae6	-0.0437726
40	0xbe4c67c2	-0.19961455
41	0xbc1222be	-0.008919416
42	0xbd42075e	-0.047370307
43	0xbe302db4	-0.17204934
44	0x3cfa0e38	0.030524358
45	0x3cffec42	0.031240586
46	0x3dde5c2e	0.10857426
47	0x3c7254b7	0.014790705
48	0xbe2e5fc1	-0.17028715
49	0xbd1c40a2	-0.038147576
50	0xbe03a1db	-0.12854712
51	0xbd88e622	-0.06684519
52	0xbc8182ba	-0.015809406
53	0xbe1594aa	-0.14607492
54	0x3e46f9ff	0.19431303
55	0xbe3463db	-0.17616217
56	0xbe52fa38	-0.20603263
57	0xbdf87bce	-0.12132989
58	0xbe0f14d7	-0.13972794
59	0xbe0bf67b	-0.13668244
60	0x3dcc5f2c	0.0997909
61	0xbc2d12b1	-0.010563538
62	0xbe1ccbde	-0.15312144
63	0xbd1a4564	-0.037663832

in_proj_weight f4 [192, 64]
0	0x3e092972	0.13394716
1	0x3e19644a	0.14979663
2	0xbdb13e3a	-0.08654447
3	0xbce18519	-0.027529286
4	0xbcc1ff85	-0.023681412
5	0xbd5f437f	-0.05450773
6	0x3e06b74e	0.13155863
7	0xbe0f984a	-0.14022937
8	0xbdd2610f	-0.10272419
9	0x3df9d2d7	0.12198418
10	0x3cd20450	0.025636822
11	0xbb6c1492	-0.0036023003
12	0x3d830a6a	0.06398471
13	0x3e0899de	0.13339946
14	0xbd0ed1fc	-0.034868225
15	0x3e1bdefd	0.15221782
16	0xbdc0a22c	-0.09405932
17	0x3d84b619	0.06480045
18	0xbb7cbfe3	-0.0038566522
19	0xbe16ebad	-0.1473834
20	0xbdc9522f	-0.098301284
21	0xbd2ab807	-0.04167941
22	0x3dc07e88	0.09399134
23	0xbe11e1f0	-0.14246345
24	0x3c9c7280	0.019097567
25	0x3dd26769	0.1027363
26	0xbe004289	-0.12525381
27	0xbdc78c17	-0.09743517
28	0xbd4d4863	-0.05011786
29	0x3893ed1d	7.053672e-05
30	0x3c903b9c	0.017606549
31	0x3e0e9b01	0.13926317
32	0x3d379f08	0.0448294
33	0x3d24a3d6	0.04019531
34	0x3dd599a8	0.10429698
35	0xbcb8859c	-0.022524647
36	0xbdf5f487	-0.120095305
37	0xbde794d5	-0.11307684
38	0xbd26f098	-0.04075679
39	0xbd202be3	-0.039104354
40	0xbe1496eb	-0.14510696
41	0x3e0669a4	0.13126236
42	0xbddf1fd1	-0.108947404
43	0x3cc2cf93	0.02378062
44	0x3c8a1fba	0.016860832
45	0xbd2180b6	-0.03942939
46	0xbd8a40ff	-0.06750678
47	0xbdc0b666	-0.0940979
48	0xbcd9af9e	-0.026572999
49	0x3e025ccd	0.12730713
50	0x3d9b1a51	0.07573379
51	0xbc1cd56f	-0.009572371
52	0xbddb690d	-0.10713396
53	0xbdc414c3	-0.095742725
54	0x3dd8d8aa	0.105882004
55	0x3b80ec1f	0.003934398
56	0x3c8c675b	0.017139127
57	0xbdfc6b8d	-0.12325201
58	0x3d6afdff	0.057371136
59	0xbd087436	-0.033313952
60	0x3e0fa17a	0.14026442
61	0xbc6bb382	-0.01438606
62	0x3e04b79f	0.12960671
63	0x3d380277	0.044924226
64	0xbe0a0051	-0.13476683
65	0x3cab58f7	0.020916445
66	0x3de9492f	0.11390912
67	0x3d8e0075	0.06933681
68	0x3d96ebce	0.07369195
69	0xba415b4a	-0.0007375969
70	0xbd8260b6	-0.063661024
71	0xbd9eb2af	-0.07748925
72	0xbe120928	-0.14261305
73	0x3ca01c14	0.019544639
74	0xbde8ccc4	-0.11367181
75	0x3d8b4d71	0.0680188
76	0x3d7683bd	0.06018423
77	0xbd8f0e30	-0.06985128
78	0xbe098067	-0.13427888
79	0x3dda647f	0.10663699
80	0x3bf17d73	0.007369691
81	0xbda42e0a	-0.08016594
82	0xbd2e1e35	-0.042509276
83	0xbd4306f0	-0.047614038
84	0x3e17a6f3	0.1480978
85	0x3d3b4abc	0.04572557
86	0xbc9cb3fc	-0.019128792
87	0xbbd801d8	-0.0065920167
88	0xbc05cae9	-0.008166053
89	0x3cde3ce2	0.02712864
90	0x3da6f04e	0.08151303
91	0xbd60354f	-0.05473834
92	0xbce1fbab	-0.027585825
93	0x3d96d8be	0.07365559
94	0xbd0a7c2d	-0.03380983
95	0x3dcd4c70	0.10024345
96	0x3dd88c36	0.10573618
97	0xbc92df0e	-0.017928626
98	0xbc19e697	-0.009393356
99	0x3e1a3de7	0.15062676
100	0x3de1a87b	0.11018463
101	0xbdfb8736	-0.12281649
102	0xbdb106f3	-0.086439036
103	0x3e1ac9ee	0.15116093
104	0xbdb749a9	-0.089495964
105	0x3da7fdfd	0.08202741
106	0xbdb30254	-0.087406784
107	0x3d12b6f2	0.035819
108	0xbda577e4	-0.08079508
109	0x3d9caa08	0.076496184
110	0xbb5d703d	-0.0033788823
111	0x3da9e761	0.08296085
112	0xbdc641a1	-0.096804865
113	0xbd71b959	-0.059014652
114	0x3e175bda	0.14781132
115	0x3c350d66	0.011050558
116	0x3df0b6e3	0.11753633
117	0xbe0d55c7	-0.13802253
118	0xbe187860	-0.1488967
119	0xbda0e926	-0.078569695
120	0xbdd4ccb4	-0.103906065
121	0x3d4e2fa8	0.050338417
122	0xbd547727	-0.051871445
123	0xbe0fc2fa	-0.14039221
124	0xbd4ef3ff	-0.05052566
125	0x3c35d61b	0.01109841
126	0x3d0a68e7	0.03379145
127	0xbd2098b7	-0.03920814
128	0x3df3a893	0.11897387
129	0xbdc7d34f	-0.09757101
130	0x3e15c08a	0.14624229
131	0x3da2391c	0.07921049
132	0x3db40d92	0.08791651
133	0x3e17d3b7	0.14826857
134	0x3c37da90	0.011221543
135	0x3d5d2591	0.053990904
136	0x3df0485d	0.11732552
137	0xbd994971	-0.07484711
138	0x3d33f907	0.043938663
139	0xbd2e2609	-0.042516742
140	0x3d6d9f6f	0.058013376
141	0x3df71357	0.12064236
142	0xbdae993f	-0.08525323
143	0x3df18fde	0.117950186
144	0xbd2f431d	-0.042788614
145	0x3c7641e8	0.015030362
146	0x3e1aa995	0.15103753
147	0xbdca1921	-0.09868074
148	0xbd8c614f	-0.06854498
149	0xbd96255e	-0.07331346
150	0x3d2c8d69	0.042127047
151	0xbd78d5df	-0.06075084
152	0xbcc67a44	-0.024228223
153	0xbd6dbf07	-0.058043506
154	0xbc8d239f	-0.0172289
155	0xbdf8bba5	-0.12145165
156	0x3d8d3d3c	0.06896445
157	0x3cffbd81	0.031218292
158	0xbdac8114	-0.08423057
159	0xbdc5895b	-0.09645339
160	0x3e0f7f93	0.1401351
161	0x3d3fa2ce	0.046786122
162	0xbd89e66c	-0.067334026
163	0xbdbbb47e	-0.091652855
164	0x3daba3ef	0.08380877
165	0xbe1c2b44	-0.1525088
166	0x3c5d6e3f	0.013515054
167	0x3d39428b	0.045229476
168	0xbd531cf3	-0.05154128
169	0x3d7fae68	0.062422186
170	0xbda0bccc	-0.0784851
171	0x3dc04658	0.09388417
172	0x3c5a1e1c	0.013312843
173	0x3e19164d	0.14949913
174	0xbd994549	-0.07483918
175	0x3cecd8df	0.028912006
176	0x3ddfa566	0.10920219
177	0xbc2ebece	-0.010665609
178	0xbbbb5cfe	-0.0057178726
179	0x3d5b3ba1	0.053523663
180	0xbd68189b	-0.05666409
181	0xbde9e67f	-0.11420917
182	0x3d49a57d	0.049230088
183	0xbdd7e445	-0.10541586
184	0xbda770ef	-0.08175837
185	0x3dd0cf88	0.101958334
186	0x3d80a8bb	0.06282183
187	0x3e1ac34f	0.15113567
188	0xbd6131e9	-0.05497924
189	0xbd687d35	-0.05676003
190	0xbdc23fbc	-0.094848126
191	0x3e1941d5	0.14966519
192	0x3be484b5	0.0069738277
193	0xbe13ac01	-0.14421083
194	0xbcb98743	-0.022647506
195	0x3d6a5dbf	0.05721831
196	0x3e160bc9	0.14652933
197	0x3c095e06	0.008384233
198	0xbe0fd244	-0.14045054
199	0x3c76b2e4	0.015057299
200	0x3dd0f7e9	0.10203535
201	0x3ce701ba	0.028199065
202	0x3ad06370	0.0015898775
203	0xbbe6d2e1	-0.0070441817
204	0x3dd773d0	0.10520136
205	0x3daff22d	0.08591113
206	0x3d2d1c97	0.042263594
207	0xbd3f89f2	-0.046762414
208	0x3de6cdc5	0.11269716
209	0x3ce80bb0	0.028325886
210	0xbe177d80	-0.14793968
211	0x3d035da9	0.032071743
212	0x3d9b4731	0.07581938
213	0x3d7fc77f	0.062446114
214	0x3a83057a	0.0009996139
215	0xbe027656	-0.12740454
216	0xbdb8dab0	-0.09026086
217	0xbd6b2d75	-0.057416398
218	0x3e0910da	0.13385335
219	0xbdd1647e	-0.102242455
220	0xbd8983ef	-0.067146175
221	0xbd82bb3c	-0.063833684
222	0xbc896fab	-0.01677688
223	0xbb24ea7d	-0.002516418
224	0x3ca292f0	0.019845456
225	0x3dfacaf5	0.12245742
226	0x3d89ea78	0.067341745
227	0xbdf9b087	-0.12191873
228	0x3d21efaf	0.03953522
229	0xbe096f4e	-0.13421366
230	0x3ad84dc8	0.0016502673
231	0x3c36b2a3	0.011150989
232	0x3dae8aea	0.085225895
233	0xbc7c94ca	-0.015416333
234	0x3cc22300	0.02369833
235	0x3d9ddcda	0.0770814
236	0xbe1176d4	-0.14205486
237	0xbd7e1df4	-0.062040284
238	0xbe1974f7	-0.14986025
239	0xbda368f1	-0.07979
240	0xbdee624b	-0.11639842
241	0xbbe00aa7	-0.0068372074
242	0xb97d374d	-0.00024148561
243	0xbdab084c	-0.08351192
244	0x3e005a13	0.1253436
245	0x3d841fbe	0.06451367
246	0x3db8b87e	0.09019564
247	0x3e0f326f	0.13984083
248	0xbd3dc288	-0.046328098
249	0x3d3f5c44	0.04671885
250	0xba151a66	-0.00056878326
251	0xbe000f44	-0.12505823
252	0xbdd54878	-0.10414213
253	0x3d233a62	0.0398506
254	0x3e17310d	0.14764805
255	0x3d275b5b	0.040858608

in_proj_bias f4 [192]
0	0x00000000	0.0
1	0x00000000	0.0
2	0x00000000	0.0
3	0x00000000	0.0
4	0x00000000	0.0
5	0x00000000	0.0
6	0x00000000	0.0
7	0x00000000	0.0
8	0x00000000	0.0
9	0x00000000	0.0
10	0x00000000	0.0
11	0x00000000	0.0
12	0x00000000	0.0
13	0x00000000	0.0
14	0x00000000	0.0
15	0x00000000	0.0
16	0x00000000	0.0
17	0x00000000	0.0
18	0x00000000	0.0
19	0x00000000	0.0
20	0x00000000	0.0
21	0x00000000	0.0
22	0x00000000	0.0
23	0x00000000	0.0
24	0x00000000	0.0
25	0x00000000	0.0
26	0x00000000	0.0
27	0x00000000	0.0
28	0x00000000	0.0
29	0x00000000	0.0
30	0x00000000	0.0
31	0x00000000	0.0
32	0x00000000	0.0
33	0x00000000	0.0
34	0x00000000	0.0
35	0x00000000	0.0
36	0x00000000	0.0
37	0x00000000	0.0
38	0x00000000	0.0
39	0x00000000	0.0
40	0x00000000	0.0
41	0x00000000	0.0
42	0x00000000	0.0
43	0x00000000	0.0
44	0x00000000	0.0
45	0x00000000	0.0
46	0x00000000	0.0
47	0x00000000	0.0
48	0x00000000	0.0
49	0x00000000	0.0
50	0x00000000	0.0
51	0x00000000	0.0
52	0x00000000	0.0
53	0x00000000	0.0
54	0x00000000	0.0
55	0x00000000	0.0
56	0x00000000	0.0
57	0x00000000	0.0
58	0x00000000	0.0
59	0x00000000	0.0
60	0x00000000	0.0
61	0x00000000	0.0
62	0x00000000	0.0
63	0x00000000	0.0
64	0x00000000	0.0
65	0x00000000	0.0
66	0x00000000	0.0
67	0x00000000	0.0
68	0x00000000	0.0
69	0x00000000	0.0
70	0x00000000	0.0
71	0x00000000	0.0
72	0x00000000	0.0
73	0x00000000	0.0
74	0x00000000	0.0
75	0x00000000	0.0
76	0x00000000	0.0
77	0x00000000	0.0
78	0x00000000	0.0
79	0x00000000	0.0
80	0x00000000	0.0
81	0x00000000	0.0
82	0x00000000	0.0
83	0x00000000	0.0
84	0x00000000	0.0
85	0x00000000	0.0
86	0x00000000	0.0
87	0x00000000	0.0
88	0x00000000	0.0
89	0x00000000	0.0
90	0x00000000	0.0
91	0x00000000	0.0
92	0x00000000	0.0
93	0x00000000	0.0
94	0x00000000	0.0
95	0x00000000	0.0
96	0x00000000	0.0
97	0x00000000	0.0
98	0x00000000	0.0
99	0x00000000	0.0
100	0x00000000	0.0
101	0x00000000	0.0
102	0x00000000	0.0
103	0x00000000	0.0
104	0x00000000	0.0
105	0x00000000	0.0
106	0x00000000	0.0
107	0x00000000	0.0
108	0x00000000	0.0
109	0x00000000	0.0
110	0x00000000	0.0
111	0x00000000	0.0
112	0x00000000	0.0
113	0x00000000	0.0
114	0x00000000	0.0
115	0x00000000	0.0
116	0x00000000	0.0
117	0x00000000	0.0
118	0x00000000	0.0
119	0x00000000	0.0
120	0x00000000	0.0
121	0x00000000	0.0
122	0x00000000	0.0
123	0x00000000	0.0
124	0x00000000	0.0
125	0x00000000	0.0
126	0x00000000	0.0
127	0x00000000	0.0
128	0x00000000	0.0
129	0x00000000	0.0
130	0x00000000	0.0
131	0x00000000	0.0
132	0x00000000	0.0
133	0x00000000	0.0
134	0x00000000	0.0
135	0x00000000	0.0
136	0x00000000	0.0
137	0x00000000	0.0
138	0x00000000	0.0
139	0x00000000	0.0
140	0x00000000	0.0
141	0x00000000	0.0
142	0x00000000	0.0
143	0x00000000	0.0
144	0x00000000	0.0
145	0x00000000	0.0
146	0x00000000	0.0
147	0x00000000	0.0
148	0x00000000	0.0
149	0x00000000	0.0
150	0x00000000	0.0
151	0x00000000	0.0
152	0x00000000	0.0
153	0x00000000	0.0
154	0x00000000	0.0
155	0x00000000	0.0
156	0x00000000	0.0
157	0x00000000	0.0
158	0x00000000	0.0
159	0x00000000	0.0
160	0x00000000	0.0
161	0x00000000	0.0
162	0x00000000	0.0
163	0x00000000	0.0
164	0x00000000	0.0
165	0x00000000	0.0
166	0x00000000	0.0
167	0x00000000	0.0
168	0x00000000	0.0
169	0x00000000	0.0
170	0x00000000	0.0
171	0x00000000	0.0
172	0x00000000	0.0
173	0x00000000	0.0
174	0x00000000	0.0
175	0x00000000	0.0
176	0x00000000	0.0
177	0x00000000	0.0
178	0x00000000	0.0
179	0x00000000	0.0
180	0x00000000	0.0
181	0x00000000	0.0
182	0x00000000	0.0
183	0x00000000	0.0
184	0x00000000	0.0
185	0x00000000	0.0
186	0x00000000	0.0
187	0x00000000	0.0
188	0x00000000	0.0
189	0x00000000	0.0
190	0x00000000	0.0
191	0x00000000	0.0

weight f4 [64, 64]
0	0xbda99e0c	-0.08282098
1	0xbcee5a38	-0.029095754
2	0xbdba04e2	-0.090829626
3	0x3b9eedc0	0.0048501194
4	0x3dfaac7c	0.1223993
5	0x3bdecc80	0.0067992806
6	0xbb5830c0	-0.0032988042
7	0xbd442088	-0.047882587
8	0x3ddba520	0.107248545
9	0xbdcaff1e	-0.09911941
10	0x3d0c818c	0.034303233
11	0x3d4fd278	0.050737828
12	0xbd8e54a0	-0.06949735
13	0x3db4478e	0.088027105
14	0x3dd8ad14	0.10579887
15	0xbb1bc5c0	-0.0023768991
16	0xbdfe6370	-0.1242131
17	0xbdc4faa8	-0.096181214
18	0xbd882c0a	-0.06649025
19	0xbd558434	-0.05212803
20	0xbd0579fc	-0.032587036
21	0x3d28413c	0.041077837
22	0xbdf1b1cc	-0.1180149
23	0xbcdeef78	-0.027213797
24	0xb8f5e000	-0.000117242336
25	0xbdc700c2	-0.097169414
26	0xbde1c330	-0.11023557
27	0xbd4b9068	-0.049698263
28	0xbde74b70	-0.112936854
29	0xbae27b80	-0.0017279238
30	0xbd88539e	-0.06656574
31	0xbc32f060	-0.010921568
32	0x3ca10a98	0.019658372
33	0xbc6a5e80	-0.014304757
34	0x3dc67284	0.09689811
35	0xbd855b8a	-0.065116
36	0x3d589d30	0.05288428
37	0x3d72640c	0.059177443
38	0x3d8451a2	0.06460883
39	0x3db6f356	0.089331314
40	0xbd3bd39c	-0.045856103
41	0xbd0147a8	-0.031562477
42	0x3d24c92c	0.040230915
43	0x3de2ac3a	0.11068006
44	0x3ddf4bd8	0.10903138
45	0xbd90566a	-0.07047732
46	0xbddea758	-0.10871762
47	0xbbab6d60	-0.0052315444
48	0x3d901d1c	0.07036802
49	0x3d8a0f00	0.06741142
50	0xbdb953a8	-0.09049159
51	0x3d3d7804	0.046257034
52	0x3b9ae4a0	0.0047269613
53	0xbd7a8c14	-0.061168745
54	0x3d8c49e6	0.068500325
55	0xbd633df8	-0.05547902
56	0x3dafa65c	0.085766524
57	0xbda8c422	-0.08240534
58	0xbddc7abe	-0.10765599
59	0xbdf03d18	-0.11730403
60	0xbcbea8d0	-0.023273855
61	0x3dbadd2c	0.091242164
62	0xbdba66fa	-0.091016725
63	0xbc59c7f0	-0.013292298
64	0xbbd66900	-0.0065432787
65	0xbca4b948	-0.02010788
66	0xbdcac17e	-0.09900187
67	0x3c147e60	0.009063333
68	0xbdf6afc8	-0.12045246
69	0x3d4b14a4	0.04958023
70	0xbd88e154	-0.06683603
71	0x3de8298a	0.11336048
72	0x3d3613fc	0.044452652
73	0xbd871ac8	-0.06596905
74	0x3dbf83ac	0.09351286
75	0xbdbaa426	-0.0911334
76	0xbde34d5c	-0.110987395
77	0x3d23181c	0.039817914
78	0x3da1325a	0.07870932
79	0xbc9d0610	-0.01916793
80	0x3b706840	0.0036683232
81	0x3d021ecc	0.03176765
82	0x3dee4618	0.11634463
83	0x3be25b40	0.0069078505
84	0x3d8c60e4	0.06854418
85	0x3d24b050	0.040207207
86	0xbcc21900	-0.023693562
87	0x3b96cc40	0.004601985
88	0x3da20fc2	0.07913162
89	0x3bfba880	0.007679999
90	0x3c64d080	0.013965726
91	0x3c521100	0.012821436
92	0x3dd44fb6	0.10366766
93	0x3de70c1c	0.112816066
94	0xbcccb580	-0.02498889
95	0x3d94ba18	0.07262057
96	0xbd3f7f84	-0.046752468
97	0x3de2b808	0.110702574
98	0xbc9ea748	-0.019366875
99	0x3d589a50	0.05288154
100	0x3df85798	0.12126082
101	0xbde056b2	-0.10954036
102	0x3dafafd6	0.0857846
103	0x3de907c0	0.11378431
104	0xbb6d9f80	-0.00362584
105	0x3c222120	0.009895593
106	0x3d91bfe6	0.0711668
107	0x3d23cab4	0.039988235
108	0x3d81e892	0.063431874
109	0x3c982b40	0.01857531
110	0x3cf85ef0	0.030318707
111	0xbdf154cc	-0.11783752
112	0x3d9b4948	0.07582337
113	0x3d250e6c	0.040296957
114	0x3dc13406	0.09433751
115	0xbddf8cf0	-0.109155536
116	0x3d6d4274	0.057924703
117	0xbd2c59a4	-0.042077675
118	0x3d86edc2	0.065883175
119	0x3d5bf7b4	0.053703025
120	0xbd96a6aa	-0.073560074
121	0xbdf4be8a	-0.11950405
122	0xbcd83280	-0.026391268
123	0x3c325f20	0.010886937
124	0xbc05efd0	-0.008174852
125	0xbc564260	-0.0130773485
126	0xbd134100	-0.03595066
127	0xbb8384a0	-0.004013613
128	0xbdb12ed2	-0.086515084
129	0x3d87aa80	0.06624317
130	0xbd5e7050	-0.05430633
131	0xbd56ec90	-0.052471697
132	0xbdaa8e6e	-0.083279476
133	0x3d99b3ca	0.07504995
134	0x3cabdea0	0.02098018
135	0x3dbc4a2a	0.09193833
136	0xbdfc3bac	-0.12316069
137	0xbd0c1944	-0.034203783
138	0xbbca4e60	-0.006173894
139	0x3de323f6	0.110908434
140	0xbd2199c4	-0.039453283
141	0x3df5b216	0.11996858
142	0xbd89e806	-0.06733708
143	0x3d8ee3ba	0.06977029
144	0xbcd5d7f0	-0.026103944
145	0xbd874dbc	-0.066066235
146	0xbbb08f60	-0.0053881854
147	0x3dcf7f1a	0.101316646
148	0x3c218960	0.009859413
149	0xbd486e18	-0.04893312
150	0xbdcdc960	-0.10048175
151	0x3dba360c	0.0909234
152	0x3d281bec	0.041042253
153	0xbdf3c0b8	-0.119019926
154	0xbdc4f4b4	-0.09616986
155	0xbddeeae0	-0.108846426
156	0x3d7b5288	0.061358005
157	0xbaa63600	-0.0012680888
158	0x3d60be98	0.054869264
159	0x3d8cb200	0.06869888
160	0x3ccb2620	0.024798453
161	0x3dfe4f34	0.124174505
162	0xbdfabd2a	-0.122431114
163	0xbdd693fe	-0.10477446
164	0x3beb9dc0	0.007190436
165	0xbc723fc0	-0.014785707
166	0x3d907e48	0.07055336
167	0x3d272a28	0.040811688
168	0xbdaeb456	-0.0853049
169	0x3dd270ea	0.10275443
170	0xbd7ac664	-0.061224356
171	0xbd15c9dc	-0.03656946
172	0xbca6a2e8	-0.020341352
173	0xbdef4630	-0.11683309
174	0x3ca53d38	0.020170793
175	0xbd3c5c60	-0.045986533
176	0x3dd3193a	0.10307546
177	0x3d9a42f6	0.07532303
178	0xbd831d00	-0.06402016
179	0x3df5d6d6	0.12003867
180	0xbddf5392	-0.10904612
181	0x3c0f40d0	0.00874348
182	0x3d8f2616	0.06989686
183	0xbcdc6850	-0.026905209
184	0xbdaf936c	-0.0857304
185	0xbc085ef0	-0.008323416
186	0x3de0936c	0.109656185
187	0xbd7495f0	-0.059713304
188	0x3d38b49c	0.045094118
189	0x3df742d4	0.12073293
190	0x3d1c49f8	0.03815648
191	0xbd7697e4	-0.060203448
192	0xbdb66a04	-0.089069396
193	0x3dda8d24	0.10671452
194	0x3c26a6d0	0.010171607
195	0x3dfe274e	0.124098405
196	0xbd0cdbbc	-0.034389243
197	0x3df18652	0.11793198
198	0x3d7bdd1c	0.061490163
199	0x3d9c0cc2	0.07619621
200	0x3c178910	0.009248987
201	0x3dedbc6a	0.11608203
202	0xba247f00	-0.0006275028
203	0xbda6e5b6	-0.08149283
204	0x3d8f3e18	0.06994265
205	0xbd1aba74	-0.03777547
206	0x3d92e8ba	0.07173295
207	0x3def5cdc	0.116876334
208	0x3d0bd918	0.034142584
209	0x3debb71a	0.11509533
210	0x3dac7a86	0.08421807
211	0x3cd8fef8	0.026488766
212	0x3d7aeab4	0.061258987
213	0xbd53e89c	-0.051735505
214	0x3db28d6e	0.08718382
215	0x3c165220	0.009174854
216	0x3dd5703e	0.10421799
217	0x3ccc3a18	0.024930045
218	0x3d820d1a	0.06350155
219	0x3d827cec	0.06371483
220	0x3df61468	0.12015611
221	0x3ca4eb60	0.020131767
222	0x3cc736a8	0.024318054
223	0xbbf834e0	-0.0075746626
224	0xbd172e90	-0.03690964
225	0x3d687694	0.05675371
226	0xbdab0e24	-0.083523065
227	0xbdbe13fe	-0.09281157
228	0x3bf1c680	0.0073783994
229	0xbca286e8	-0.019839719
230	0xbd4fb16c	-0.050706312
231	0x3df6475a	0.12025328
232	0x3dc660b8	0.096864164
233	0xbcde88a8	-0.027164772
234	0xbdfdc05e	-0.12390207
235	0xbd847b8a	-0.06468876
236	0xbdc53a94	-0.096303135
237	0xbdd357c8	-0.10319477
238	0x3d7f5cd4	0.062344387
239	0xbd24e484	-0.040256992
240	0xbd118270	-0.035524786
241	0xbc46ab70	-0.012125835
242	0xbdc6d7a4	-0.09709099
243	0xbbde8380	-0.0067905784
244	0x3dd2cac6	0.10292582
245	0xbddc820a	-0.107669905
246	0xbd2baf4c	-0.041915223
247	0x3d86d9c0	0.06584501
248	0x3c528fa0	0.012851626
249	0xbca51940	-0.020153642
250	0xbd12914c	-0.035783097
251	0x3ce78370	0.028260916
252	0xbd9300ac	-0.071778625
253	0x3c769ad0	0.015051559
254	0xbd3b6a2c	-0.04575555
255	0x3dc75c30	0.0973438

bias f4 [64]
0	0x00000000	0.0
1	0x00000000	0.0
2	0x00000000	0.0
3	0x00000000	0.0
4	0x00000000	0.0
5	0x00000000	0.0
6	0x00000000	0.0
7	0x00000000	0.0
8	0x00000000	0.0
9	0x00000000	0.0
10	0x00000000	0.0
11	0x00000000	0.0
12	0x00000000	0.0
13	0x00000000	0.0
14	0x00000000	0.0
15	0x00000000	0.0
16	0x00000000	0.0
17	0x00000000	0.0
18	0x00000000	0.0
19	0x00000000	0.0
20	0x00000000	0.0
21	0x00000000	0.0
22	0x00000000	0.0
23	0x00000000	0.0
24	0x00000000	0.0
25	0x00000000	0.0
26	0x00000000	0.0
27	0x00000000	0.0
28	0x00000000	0.0
29	0x00000000	0.0
30	0x00000000	0.0
31	0x00000000	0.0
32	0x00000000	0.0
33	0x00000000	0.0
34	0x00000000	0.0
35	0x00000000	0.0
36	0x00000000	0.0
37	0x00000000	0.0
38	0x00000000	0.0
39	0x00000000	0.0
40	0x00000000	0.0
41	0x00000000	0.0
42	0x00000000	0.0
43	0x00000000	0.0
44	0x00000000	0.0
45	0x00000000	0.0
46	0x00000000	0.0
47	0x00000000	0.0
48	0x00000000	0.0
49	0x00000000	0.0
50	0x00000000	0.0
51	0x00000000	0.0
52	0x00000000	0.0
53	0x00000000	0.0
54	0x00000000	0.0
55	0x00000000	0.0
56	0x00000000	0.0
57	0x00000000	0.0
58	0x00000000	0.0
59	0x00000000	0.0
60	0x00000000	0.0
61	0x00000000	0.0
62	0x00000000	0.0
63	0x00000000	0.0

weight f4 [128, 64]
0	0xbd2ba5ec	-0.041906282
1	0x3c4ff670	0.012693033
2	0xbdb81e8e	-0.08990203
3	0x3de5cf5c	0.11221191
4	0x3da4bf8c	0.08044347
5	0xbcb91580	-0.02259326
6	0xbd1dee64	-0.038557425
7	0xbd239de0	-0.039945483
8	0xbdf6c388	-0.120490134
9	0x3d42f038	0.04759237
10	0x3d85fedc	0.06542751
11	0xbd987316	-0.07443826
12	0xbd3fcd80	-0.04682684
13	0x3defef0e	0.11715518
14	0x3dfa89a8	0.12233287
15	0x3ca58c08	0.020208374
16	0xbca48c98	-0.020086572
17	0xbbcfdce0	-0.006343469
18	0x3ca3dda0	0.02000314
19	0xbd92063e	-0.07130097
20	0x3db27262	0.08713223
21	0x3c5dcba0	0.0135373175
22	0xbd96ee5c	-0.07369682
23	0x3d3f48c0	0.04670024
24	0x3d363234	0.04448147
25	0xbd7d27bc	-0.06180547
26	0x3c0e8c40	0.00870043
27	0xbd2460e8	-0.04013148
28	0xbd373cdc	-0.044735774
29	0x3d34daf0	0.044154108
30	0xbd985316	-0.074377224
31	0xbd1ee64c	-0.038793847
32	0xb9d81a00	-0.00041218102
33	0x3d9fa74a	0.0779558
34	0xbdd77574	-0.10520449
35	0x3dcbfc14	0.099601895
36	0xbdbf26aa	-0.093335465
37	0x3da097de	0.07841466
38	0x3d583258	0.052782387
39	0xbc67d8d0	-0.014150813
40	0x3bf97ea0	0.007613972
41	0x3dc99edc	0.09844753
42	0x3c1eaa30	0.009684131
43	0x3ca0f910	0.019650012
44	0xbda68b7e	-0.08132075
45	0xbd15ac34	-0.03654118
46	0x3cf8d188	0.03037335
47	0x3b7b2e80	0.0038327277
48	0xbddbf738	-0.107405126
49	0xbd725394	-0.059161738
50	0x3a908580	0.0011026114
51	0x3deea4a2	0.11652495
52	0x3d9880a2	0.0744641
53	0x3d9886f6	0.07447617
54	0xbdb47318	-0.08811015
55	0xbcd8f868	-0.026485637
56	0x3de13edc	0.109983176
57	0x3d93a6ae	0.07209526
58	0xbd5fe334	-0.054660037
59	0xbcb2b318	-0.021813914
60	0x3ca4de18	0.020125434
61	0xbd899f66	-0.06719856
62	0xbdda5740	-0.10661173
63	0x3c970dd8	0.018439218
64	0xbd33c5b8	-0.04388973
65	0x3de7e17e	0.11322306
66	0x3dc6c5fc	0.09705731
67	0x3d970544	0.07374051
68	0xbd114078	-0.035461873
69	0xbd75220c	-0.059846923
70	0x3d5ee758	0.054419845
71	0xbdee3c76	-0.11632626
72	0x3d3985f8	0.04529378
73	0xbdd34f40	-0.1031785
74	0xbde00fec	-0.10940537
75	0xbc8af1e0	-0.016961038
76	0x3d655e58	0.055998176
77	0xbcab6c10	-0.020925552
78	0xba627600	-0.0008638799
79	0x3d9f78dc	0.07786724
80	0xbd8bff28	-0.068357766
81	0xbd8ce2dc	-0.068792075
82	0x3d91d75c	0.07121155
83	0xbcdf0b20	-0.027226985
84	0xbdf61dca	-0.120174006
85	0x3db3c864	0.08778456
86	0x3d0293b0	0.031879127
87	0x3dfe1a20	0.12407327
88	0xbdde0d0e	-0.10842334
89	0xbd9b2b74	-0.075766474
90	0xbd8e33fc	-0.06943509
91	0xbd6c521c	-0.057695493
92	0xbdd6bfd0	-0.10485804
93	0x3c9347b8	0.017978534
94	0x3dd76a6a	0.10518344
95	0xbdc649d4	-0.0968205
96	0x3d8f4c8a	0.069970205
97	0xbc8b7190	-0.017021924
98	0x3dd6168c	0.10453519
99	0xbdfeb6ee	-0.12437235
100	0xbba4ffe0	-0.0050353855
101	0x3d110750	0.035407364
102	0xbc86cb10	-0.01645425
103	0xbb8976c0	-0.0041950643
104	0xbdd30548	-0.10303742
105	0xbd0636b0	-0.032766998
106	0xbdd41e10	-0.103572965
107	0x3d45e98c	0.04831843
108	0xbcf4a920	-0.029865801
109	0xb9a4da00	-0.0003144294
110	0xbdc75c3a	-0.09734388
111	0xbdb9511c	-0.090486735
112	0x3c701ce0	0.014655322
113	0x3dc3f7d0	0.09568751
114	0xbc895488	-0.01676394
115	0xbd141e64	-0.036161795
116	0x3d022c5c	0.031780586
117	0xbdb6513c	-0.08902213
118	0xbde9c9a8	-0.11415416
119	0x3dc04042	0.09387256
120	0x3d96dc10	0.07366192
121	0x3dc1cf2a	0.094633415
122	0x3deb96a8	0.11503345
123	0xbd015028	-0.031570584
124	0x3dcc2300	0.09967613
125	0xbd77df3c	-0.060515627
126	0x3dfd49e0	0.12367606
127	0xbdc4dc9e	-0.09612392
128	0x3d8099de	0.06279348
129	0xbd2bdd84	-0.0419593
130	0xbd4a41e0	-0.04937923
131	0x3ca0e330	0.019639581
132	0xbc8a2f78	-0.016868338
133	0x3db9d79c	0.09074327
134	0x3ddce920	0.107866526
135	0x3c82fe48	0.015990391
136	0x3ce8ee18	0.028433844
137	0x3dbf0ca2	0.093285814
138	0xbbd26ce0	-0.0064216703
139	0xbc8d3b30	-0.017240137
140	0xbdd334ba	-0.10312791
141	0x3db2c200	0.08728409
142	0xbbbef040	-0.00582698
143	0x3d055ce0	0.032559276
144	0x3dd4c460	0.10389018
145	0xbd5aad48	-0.05338791
146	0x3dffb584	0.12485793
147	0x3d82755c	0.06370041
148	0xbc7d41c0	-0.015457571
149	0x3d7de318	0.06198415
150	0x3b9958c0	0.0046797693
151	0xbd9250e0	-0.07144332
152	0x3cb57798	0.022151753
153	0xbd1d9bf0	-0.03847879
154	0x3d55d1dc	0.05220209
155	0xbdf468ee	-0.11934076
156	0x3dba3fb6	0.09094183
157	0xbd279540	-0.04091382
158	0x3de820b2	0.11334361
159	0x3cd24920	0.025669634
160	0xbdb6fd9e	-0.089350924
161	0xbdfe1784	-0.12406829
162	0x3def0e5e	0.11672662
163	0xbde28300	-0.110601425
164	0x3de22bca	0.11043508
165	0xbdfb9d04	-0.12285808
166	0x3d9efa68	0.07762605
167	0xbbf14460	-0.0073628873
168	0xbd2de89c	-0.04245816
169	0x3c9fb618	0.019496009
170	0xbb34c880	-0.0027585328
171	0x3d4864a4	0.048924103
172	0xbcffaa38	-0.031209096
173	0x3d914344	0.07092908
174	0xbb8caf40	-0.0042933524
175	0xbdd9e940	-0.10640192
176	0xbc22f100	-0.009945154
177	0xbc5ab3c0	-0.01334852
178	0x3d2963a4	0.04135479
179	0x3db09c02	0.08623506
180	0xbcdb3540	-0.02675879
181	0xbd6ca854	-0.057777718
182	0xbdef69fe	-0.11690138
183	0xbcb2f728	-0.021846369
184	0xbc7c6c80	-0.015406728
185	0xbd9953e6	-0.074867055
186	0x3d9ff214	0.078098446
187	0xbd9fe57a	-0.07807441
188	0xbdd56e90	-0.10421479
189	0x3c873b70	0.016507834
190	0x3de46914	0.111528546
191	0x3c70b8d0	0.0146925
192	0x3d2aaee8	0.04167071
193	0x3dd63ff6	0.10461418
194	0x3d786d40	0.060651064
195	0x3dac56c0	0.08414984
196	0xbdceb540	-0.100931644
197	0xbda05ee4	-0.07830599
198	0xbdb4427a	-0.08801742
199	0x3db4687e	0.08808993
200	0x3bd1d6e0	0.006403789
201	0xbdf4d8e2	-0.119554296
202	0x3c538870	0.012910947
203	0xbd75ddb0	-0.06002587
204	0xbd62e8ec	-0.055397913
205	0xbd793dcc	-0.06084995
206	0x3db4ab5a	0.08821745
207	0x3c4f1050	0.012638167
208	0xbcb90348	-0.022584572
209	0x3daa94f4	0.08329192
210	0x3c0d7220	0.008633167
211	0x3db706c6	0.08936839
212	0x3dd1f42e	0.10251652
213	0x3dc0f38c	0.09421453
214	0x3c8bc770	0.017062873
215	0x3d256fa0	0.040389657
216	0x3dbe2888	0.092850745
217	0x3d5722c4	0.05252339
218	0x3dd75b24	0.105154306
219	0xbdbd384c	-0.092392534
220	0xbd5c7420	-0.053821683
221	0x3ca14a40	0.019688725
222	0xbc1ee6f0	-0.0096986145
223	0x3d750a48	0.059824258
224	0x3b7719c0	0.0037704557
225	0xbdcbea42	-0.099567905
226	0x3de8d8ce	0.11369477
227	0xbc382df0	-0.011241421
228	0xbdcb11c6	-0.099154994
229	0x3dc71c3e	0.09722184
230	0x3dc695de	0.09696554
231	0xbdf80796	-0.12110822
232	0xbd12c8b4	-0.035835937
233	0xbb180400	-0.0023195744
234	0xbdd753b6	-0.105140135
235	0xbdb6c52e	-0.08924328
236	0xbce5a9a8	-0.028035
237	0xb9d11200	-0.00039876997
238	0x3de2f6e4	0.11082247
239	0xbdb2ef9a	-0.087371066
240	0xbde17e94	-0.11010471
241	0xbd1ce90c	-0.03830819
242	0x3d74428c	0.059633777
243	0xbdace196	-0.084414646
244	0xbd7a1aa0	-0.061060548
245	0x3db8bfd4	0.09020963
246	0x3cf445b0	0.029818386
247	0x3ce4bba8	0.027921513
248	0xbd02cbc0	-0.031932592
249	0xbda0d1cc	-0.078525156
250	0x3d6c8b6c	0.05775015
251	0x3c82f648	0.015986577
252	0xbd131620	-0.035909772
253	0x3db49c28	0.08818847
254	0xbdae660c	-0.08515558
255	0x3d6ef974	0.058343366

bias f4 [128]
0	0x3def0a0a	0.11671837
1	0xbdfd137a	-0.123572305
2	0x3dce8744	0.100843936
3	0xbd98d2a8	-0.074620545
4	0x3d49b9f0	0.04924959
5	0xbcf53c50	-0.029935986
6	0x3d512b24	0.051066533
7	0x3d0c4a8c	0.03425078
8	0x3d597e08	0.05309871
9	0x3cb3b198	0.02193527
10	0x3d0ddaac	0.03463237
11	0xbbfe0c60	-0.00775294
12	0xbd66bb7c	-0.056331143
13	0xbdc1e694	-0.094678074
14	0xbbeb5f00	-0.0071829557
15	0xbdc85ee4	-0.09783724
16	0xbda72d22	-0.08162905
17	0x3ddb0d62	0.10695912
18	0xbdb903bc	-0.090339154
19	0x3df06394	0.11737743
20	0xbdb045f0	-0.086070895
21	0x3c7d4f80	0.015460849
22	0x3b913ee0	0.004432544
23	0x3d5308b8	0.051521987
24	0x3dbf3a18	0.093372524
25	0xbd0ae944	-0.033913866
26	0x3c6959e0	0.014242619
27	0xbc9f3660	-0.019435108
28	0xbbc55e60	-0.0060232133
29	0xbde4b8b6	-0.11168043
30	0xbcd794f8	-0.026316151
31	0xbd116098	-0.03549251
32	0x3d5002a0	0.050783753
33	0xbdf0cf4a	-0.11758287
34	0xbce5d918	-0.02805762
35	0x3da8f9aa	0.08250745
36	0xbdabd442	-0.08390094
37	0xbccb4d68	-0.024817184
38	0x3d4e2014	0.05032356
39	0xbdf2ea38	-0.1186108
40	0xbcc22da0	-0.023703396
41	0x3cafc8e0	0.02145809
42	0x3ab06080	0.0013456494
43	0xbc350fb0	-0.0110511035
44	0x3de263c8	0.11054188
45	0x3d2b2a4c	0.041788384
46	0x3dea6182	0.114443794
47	0x3d3c9a80	0.04604578
48	0x3d8a8a8a	0.067647055
49	0xbd141888	-0.036156207
50	0x3d1b6594	0.03793867
51	0x3dc0a520	0.09406495
52	0xbdbe34f0	-0.09287441
53	0xbd92375e	-0.07139467
54	0xbdee4ab6	-0.11635344
55	0x3d3fd760	0.046836257
56	0x3dd48e1a	0.10378666
57	0xbb87aba0	-0.0041403323
58	0x3df547a2	0.119765535
59	0xba4ac400	-0.0007734895
60	0xbd782ac4	-0.06058766
61	0x3dfd80c2	0.12378074
62	0x3ce2ae18	0.027670905
63	0x3dfb275c	0.122633666
64	0x3d550a40	0.05201173
65	0x3d6573d0	0.05601865
66	0xbccc0120	-0.02490288
67	0x3ddc9734	0.10771027
68	0xbd0209f4	-0.031747773
69	0xbd9921cc	-0.07477149
70	0xbab8ad00	-0.0014089644
71	0xbd9eccba	-0.07753892
72	0x3d0693d8	0.03285584
73	0xbd7bf024	-0.061508313
74	0xbd62100c	-0.055191085
75	0xbdf5f682	-0.12009908
76	0x3d7eea14	0.062234953
77	0xbd9a0d06	-0.07522015
78	0xbcd6f9a8	-0.026242092
79	0xbdd0d72e	-0.10197292
80	0xbd434efc	-0.047682747
81	0xbbb20ea0	-0.0054338723
82	0x3df462a6	0.11932878
83	0x3d23ffe4	0.04003896
84	0x3d508ef0	0.050917566
85	0xbdc541b2	-0.09631671
86	0xbc80bd10	-0.015715152
87	0x3afc3900	0.0019243062
88	0xbdd59430	-0.10428655
89	0x3dbd4d4e	0.0924326
90	0xbddcba8a	-0.10777767
91	0x3c2207c0	0.009889543
92	0x3d9b671c	0.07588026
93	0x3d2d1608	0.04225734
94	0xbc655de0	-0.013999432
95	0x3cf85a10	0.030316383
96	0x3d2e7e7c	0.042601094
97	0x3dd51c12	0.104057446
98	0x3dff872c	0.12476954
99	0xbde0ca72	-0.109761134
100	0x3d5f2ae0	0.05448425
101	0xbdccfc46	-0.10009055
102	0x3dbc5462	0.09195782
103	0xbab64780	-0.0013906807
104	0xbcf683e8	-0.030092195
105	0x3d60d35c	0.054889068
106	0x3dbe1312	0.09280981
107	0xbd21f7fc	-0.039543137
108	0xbdaf69d8	-0.0856511
109	0x3dac2470	0.084053874
110	0x3d2c183c	0.0420153
111	0xbcfbfd40	-0.030760407
112	0x3cb3d4d8	0.021952078
113	0xbd9d0aca	-0.076680735
114	0x3de7b66c	0.11314091
115	0xbda4ed16	-0.08053033
116	0x3ceebb70	0.029142112
117	0x3dfd5094	0.12368885
118	0xbd91189a	-0.070847705
119	0xbd57e408	-0.052707702
120	0x3d8ecd56	0.069727585
121	0x3dcb9352	0.099402085
122	0xbdd5f342	-0.10446788
123	0x3dc0f56e	0.09421812
124	0x3cf49810	0.029857665
125	0xbd2ea478	-0.04263732
126	0xbdd8dd1c	-0.10589048
127	0xbdf9dd12	-0.12200369

weight f4 [64, 128]
0	0xbd45c04e	-0.0482791
1	0x3d600e78	0.0547013
2	0x3c6feccc	0.014643859
3	0x3c2ec015	0.010665913
4	0x3d48f6de	0.049063556
5	0xbd54ac34	-0.05192204
6	0x3d805994	0.06267086
7	0x3cbc29dc	0.022969179
8	0xbd7a373f	-0.061087843
9	0x3c0f92f8	0.008763067
10	0xbd95e36b	-0.07318767
11	0xbc9ba0f5	-0.018997649
12	0x3d5539b7	0.052056994
13	0xbc4cdee8	-0.012504317
14	0x3d5a4b66	0.05329456
15	0xbce2fd8c	-0.027708791
16	0x3d1a6bff	0.03770065
17	0xbd764e67	-0.060133364
18	0x3d6e1a98	0.05813083
19	0x3c948363	0.018129056
20	0x3c218483	0.009858253
21	0xbcf3278f	-0.029681949
22	0xbd114d4c	-0.035474107
23	0x3d9ecabd	0.07753513
24	0xbd181c04	-0.037136093
25	0x3d8914d7	0.06693428
26	0xbb6c6f1a	-0.0036076964
27	0x3d3632ee	0.044482164
28	0xbd7f15e0	-0.06227672
29	0xbcf490c2	-0.029854182
30	0x3d525b08	0.051356345
31	0x3cd8aef5	0.026450614
32	0xbd8e36bf	-0.06944036
33	0xbda98342	-0.082769886
34	0x3d6dc407	0.058048274
35	0xbd77c328	-0.06048885
36	0x3cdd8f9f	0.027046023
37	0xbca31642	-0.019908074
38	0x3d7fb362	0.062426932
39	0x3d6ca453	0.0577739
40	0xbda20b86	-0.07912354
41	0x3da8aedf	0.08236479
42	0x3d0978d0	0.03356248
43	0xbc1f06f7	-0.00970625
44	0x3d7a4719	0.06110296
45	0x3cf314d8	0.029673025
46	0x3d2edf0a	0.042693175
47	0xbc33c93a	-0.010973269
48	0x3cd7cca9	0.026342707
49	0xbda3f541	-0.08005763
50	0x3b9883b2	0.004654371
51	0xbcfaf528	-0.030634478
52	0x3c06a2d1	0.008217529
53	0xbd9f6f6b	-0.07784923
54	0x3d95f235	0.07321588
55	0xbcaa70aa	-0.020805676
56	0x3d56cc0f	0.0524407
57	0x3d27b16a	0.04094068
58	0x3d99978a	0.07499607
59	0xbc4f3228	-0.0126462355
60	0x3cf2211d	0.029556805
61	0x3d093155	0.033494312
62	0x3d948d39	0.072534986
63	0xbd97d609	-0.07413871
64	0xbd9bcc9f	-0.07607388
65	0x3da8aa01	0.08235551
66	0xbd199745	-0.037497777
67	0xbd784404	-0.06061174
68	0xbcaf0dc6	-0.021368872
69	0xbd57a51e	-0.052647702
70	0x3c99b97f	0.01876521
71	0x3d0d0605	0.03442957
72	0x3c0b4a8e	0.008501662
73	0x3da6d551	0.081461556
74	0xbd24232e	-0.040072612
75	0x3cab4e08	0.020911232
76	0x3c42f546	0.011899298
77	0x3db3c55d	0.087778784
78	0xbda37638	-0.07981533
79	0xbdad7240	-0.08469057
80	0x3d5359e9	0.051599417
81	0xbba42b82	-0.0050100693
82	0xbca264cc	-0.019823454
83	0x3d0865d9	0.033300254
84	0xbd85370b	-0.06504639
85	0x3d512a03	0.051065456
86	0x3c9309f8	0.01794909
87	0xbbfde366	-0.0077480553
88	0xbd939ebc	-0.072080106
89	0xbda62677	-0.08112805
90	0xbc02a500	-0.007973909
91	0x3daf5aa1	0.08562208
92	0x3bef4799	0.0073022363
93	0xbda7aef9	-0.0818767
94	0xbd2c0570	-0.041997373
95	0xbd1b3329	-0.037890587
96	0xbcb4060f	-0.021975545
97	0x3b392d52	0.0028255773
98	0x3d06af9f	0.03288233
99	0xbba5e108	-0.005062226
100	0x3d10ee50	0.035383523
101	0xbd7a4b14	-0.061106756
102	0x3d5ddd2b	0.054166
103	0xbce34f98	-0.027747914
104	0xbbeb11f8	-0.007173773
105	0x3d5af74b	0.053458493
106	0x37832b16	1.563648e-05
107	0x3ccba2ce	0.024857905
108	0x3d3ebf01	0.046568874
109	0xbd9f46e6	-0.07777195
110	0xbcef1bd3	-0.029188072
111	0x3d93e7bf	0.072219364
112	0xbce44008	-0.027862564
113	0x3dad3679	0.084576555
114	0x3d933c37	0.071892194
115	0x3d2f84c7	0.042851236
116	0x3d333b52	0.043757744
117	0xbd21762e	-0.039419346
118	0x3d08ae2c	0.03336923
119	0xbdad2e8b	-0.08456143
120	0x3ca6074e	0.020267155
121	0x3d8aee1e	0.067836985
122	0xbdabd37a	-0.08389945
123	0xbd2b264d	-0.041784573
124	0x3d92db59	0.071707435
125	0x3d893f5e	0.067015395
126	0xbda9ec34	-0.08297005
127	0xbcf9359a	-0.030421067
128	0x3d36c9a4	0.044625893
129	0xbd1f31d5	-0.038865883
130	0x3ba488ac	0.0050211754
131	0xbd9d71ea	-0.07687743
132	0xbd10f8dd	-0.035393585
133	0xbccfb4b5	-0.025354723
134	0xbc26560f	-0.010152354
135	0x3c2af676	0.010434737
136	0xbdaa8ce5	-0.08327655
137	0xbbb742db	-0.0055926866
138	0xbd76f344	-0.06029059
139	0xbd4aa93b	-0.049477797
140	0xbd9327b1	-0.07185305
141	0x3b94bab2	0.0045388574
142	0xbd3aac79	-0.04557464
143	0x3d1e1e98	0.038603395
144	0x3cea657a	0.02861284
145	0x3c36e3f8	0.01116275
146	0xbcf62243	-0.030045634
147	0xbc8c0da6	-0.017096352
148	0xbc9a85a7	-0.018862559
149	0x3d23818a	0.03991846
150	0x3ce820c4	0.028335936
151	0x3dae55f2	0.085124865
152	0x3da8eaab	0.08247884
153	0x3d3ccd5b	0.04609428
154	0x3d74ff7d	0.059813965
155	0xbd0bc740	-0.034125566
156	0xbda0bfad	-0.07849059
157	0x3c85aeff	0.016318796
158	0x3d46a18d	0.04849391
159	0x3d675ff0	0.056487978
160	0xbd550763	-0.052008998
161	0xbd15741a	-0.036487676
162	0x3d6cd15e	0.057816856
163	0xbda0590d	-0.07829485
164	0x3c49fe96	0.012328764
165	0x3da49680	0.08036518
166	0x3dae2b7b	0.08504387
167	0x3b8bddad	0.004268369
168	0x3d7fd805	0.06246187
169	0x3d5fd490	0.054646075
170	0xbd92083d	-0.071304776
171	0xbd801189	-0.062533446
172	0xbc893b73	-0.01675198
173	0x3d990a27	0.074726395
174	0xbd4e14c6	-0.05031278
175	0xbd2334f6	-0.03984543
176	0xbd827633	-0.06370201
177	0xbd6f9258	-0.058489174
178	0xbdab6a1b	-0.083698474
179	0xbab0d2db	-0.0013490574
180	0x3d770d41	0.060315374
181	0x3d0ad9c8	0.0338991
182	0x3cc8e0d3	0.024521267
183	0x3d9aaade	0.075521216
184	0xbcfd361d	-0.030909592
185	0xbdabf960	-0.08397174
186	0x3d276e78	0.040876836
187	0x3d125afe	0.03573131
188	0xbd86eff2	-0.06588735
189	0xbc8e74d0	-0.017389685
190	0xbd77da1b	-0.060510736
191	0xbcd14b3f	-0.025548575
192	0xbd36acc3	-0.044598352
193	0x3c2bb1d8	0.010479413
194	0xbafcde36	-0.0019292298
195	0x3cbe7040	0.023246884
196	0xbd43be81	-0.0477891
197	0x3d1a9f35	0.037749488
198	0x3d9f011c	0.077638835
199	0xbcd28780	-0.025699377
200	0xbd5ecfdd	-0.054397453
201	0x3d489963	0.048974406
202	0xbd86102b	-0.065460525
203	0x3d34c443	0.044132482
204	0xbd53a770	-0.051673353
205	0xbd9ad9a9	-0.07561047
206	0x3cf3ddba	0.029768813
207	0x3cb4b605	0.02205945
208	0x3aa31395	0.0012441749
209	0x3c5a3a1f	0.013319521
210	0x3d6f5d25	0.05843844
211	0xbd722b11	-0.059123103
212	0x3b96934f	0.0045951973
213	0x3d874ab0	0.066060424
214	0x3d1cb38c	0.038257167
215	0x3da1e15a	0.079043105
216	0xbd657589	-0.056020293
217	0x3aaa3829	0.0012986708
218	0xbd3903d0	-0.04516965
219	0x3c9a07c9	0.01880254
220	0xbd76e4c0	-0.060276747
221	0xbd1884e4	-0.03723611
222	0xbbb74171	-0.005592518
223	0xbd8ca01c	-0.06866476
224	0x3cd9fb03	0.02660895
225	0xbd86a181	-0.06573773
226	0xbbc7842e	-0.006088755
227	0x3b5c8548	0.0033648778
228	0xbdb4a715	-0.08820931
229	0xbd90eeb4	-0.07076779
230	0x3d637d01	0.055539135
231	0x3db01083	0.08596899
232	0xbd9516e1	-0.072797544
233	0x3d103858	0.035209984
234	0x3d6e1621	0.058126573
235	0xbbe97bbc	-0.007125346
236	0x3da0906c	0.07840046
237	0xbd92e713	-0.0717298
238	0xb909b584	-0.00013132958
239	0x3da77a52	0.081776276
240	0x3b8afd59	0.004241627
241	0xbcb2233d	-0.021745319
242	0x3d515854	0.051109627
243	0x3d3218c6	0.043480657
244	0xbd3771ec	-0.04478638
245	0xbcb92a46	-0.022603165
246	0xb99a24cd	-0.00029400588
247	0xbdb05a58	-0.08610982
248	0x3db0a0d5	0.08624426
249	0x3ba1d059	0.004938167
250	0xbd945d19	-0.072443195
251	0x3d3d74aa	0.046253838
252	0x3d83f9fb	0.06444164
253	0x3d8e64fd	0.06952856
254	0xbd9a9f72	-0.07549943
255	0xbd624ff4	-0.05525203

bias f4 [64]
0	0x3d9a574c	0.07536182
1	0xbcd8cc5e	-0.026464637
2	0x3d4bfbef	0.04980081
3	0xbdabb34f	-0.0838381
4	0x3d4341e0	0.047670245
5	0x3cd3f67d	0.02587437
6	0x3c586de2	0.013209792
7	0x3ca49e26	0.020094942
8	0x3cfef2f9	0.031121718
9	0xbd3324bf	-0.043736216
10	0x3959eeb9	0.00020783664
11	0x3d867d59	0.06566877
12	0x3bce650d	0.0062986673
13	0x3d6298eb	0.055321615
14	0x3ce646a7	0.028109862
15	0x3d0bcb86	0.034129642
16	0x3ca2db2b	0.019879898
17	0x3d4342d0	0.04767114
18	0xbd815f5b	-0.06317016
19	0x3d6806de	0.056647174
20	0x3d9013bc	0.07035014
21	0xbccf6eb9	-0.025321351
22	0xbb9829a1	-0.0046436344
23	0x3dab47e4	0.083633214
24	0x3ccbcd09	0.024878042
25	0x3c78188d	0.015142572
26	0x3d7f34e9	0.06230632
27	0xbd9e81be	-0.0773959
28	0x3bc81b96	0.006106804
29	0xbbc46dfc	-0.0059945565
30	0x3ce2bd06	0.027678024
31	0xbd33187e	-0.04372453
32	0xbc1ca3ce	-0.009560538
33	0x3da760a2	0.08172728
34	0xbd43e9d8	-0.047830433
35	0x3d88439f	0.06653523
36	0x3ccef5f7	0.02526377
37	0xbd67c5f8	-0.056585282
38	0xbcfbd71f	-0.030742226
39	0xbd9d28a7	-0.076737694
40	0x3da456bf	0.08024358
41	0xbc831963	-0.016003316
42	0x3d0e3794	0.034720972
43	0xbd6802e1	-0.05664337
44	0xbdb1848c	-0.086678594
45	0x3d921182	0.071322456
46	0x3c17d351	0.00926669
47	0x3c2fa4c9	0.01072044
48	0x3da0fc74	0.078606516
49	0xbd3598ec	-0.04433529
50	0x3d4d8f32	0.05018539
51	0xbd21c24e	-0.039491944
52	0xbd986913	-0.07441916
53	0x3d93ff73	0.072264574
54	0x3c87cbb6	0.01657663
55	0x3cd5e6db	0.026111057
56	0x3c94f557	0.018183393
57	0x3db304d2	0.08741154
58	0x3d3b89dd	0.045785774
59	0xbdb22f26	-0.08700399
60	0xbd25db03	-0.04049207
61	0xbd87cdaf	-0.06631028
62	0x3cc443b7	0.02395807
63	0x3d5a1474	0.053242162

weight f4 [64]
0	0x3f800000	1.0
1	0x3f800000	1.0
2	0x3f800000	1.0
3	0x3f800000	1.0
4	0x3f800000	1.0
5	0x3f800000	1.0
6	0x3f800000	1.0
7	0x3f800000	1.0
8	0x3f800000	1.0
9	0x3f800000	1.0
10	0x3f800000	1.0
11	0x3f800000	1.0
12	0x3f800000	1.0
13	0x3f800000	1.0
14	0x3f800000	1.0
15	0x3f800000	1.0
16	0x3f800000	1.0
17	0x3f800000	1.0
18	0x3f800000	1.0
19	0x3f800000	1.0
20	0x3f800000	1.0
21	0x3f800000	1.0
22	0x3f800000	1.0
23	0x3f800000	1.0
24	0x3f800000	1.0
25	0x3f800000	1.0
26	0x3f800000	1.0
27	0x3f800000	1.0
28	0x3f800000	1.0
29	0x3f800000	1.0
30	0x3f800000	1.0
31	0x3f800000	1.0
32	0x3f800000	1.0
33	0x3f800000	1.0
34	0x3f800000	1.0
35	0x3f800000	1.0
36	0x3f800000	1.0
37	0x3f800000	1.0
38	0x3f800000	1.0
39	0x3f800000	1.0
40	0x3f800000	1.0
41	0x3f800000	1.0
42	0x3f800000	1.0
43	0x3f800000	1.0
44	0x3f800000	1.0
45	0x3f800000	1.0
46	0x3f800000	1.0
47	0x3f800000	1.0
48	0x3f800000	1.0
49	0x3f800000	1.0
50	0x3f800000	1.0
51	0x3f800000	1.0
52	0x3f800000	1.0
53	0x3f800000	1.0
54	0x3f800000	1.0
55	0x3f800000	1.0
56	0x3f800000	1.0
57	0x3f800000	1.0
58	0x3f800000	1.0
59	0x3f800000	1.0
60	0x3f800000	1.0
61	0x3f800000	1.0
62	0x3f800000	1.0
63	0x3f800000	1.0

bias f4 [64]
0	0x00000000	0.0
1	0x00000000	0.0
2	0x00000000	0.0
3	0x00000000	0.0
4	0x00000000	0.0
5	0x00000000	0.0
6	0x00000000	0.0
7	0x00000000	0.0
8	0x00000000	0.0
9	0x00000000	0.0
10	0x00000000	0.0
11	0x00000000	0.0
12	0x00000000	0.0
13	0x00000000	0.0
14	0x00000000	0.0
15	0x00000000	0.0
16	0x00000000	0.0
17	0x00000000	0.0
18	0x00000000	0.0
19	0x00000000	0.0
20	0x00000000	0.0
21	0x00000000	0.0
22	0x00000000	0.0
23	0x00000000	0.0
24	0x00000000	0.0
25	0x00000000	0.0
26	0x00000000	0.0
27	0x00000000	0.0
28	0x00000000	0.0
29	0x00000000	0.0
30	0x00000000	0.0
31	0x00000000	0.0
32	0x00000000	0.0
33	0x00000000	0.0
34	0x00000000	0.0
35	0x00000000	0.0
36	0x00000000	0.0
37	0x00000000	0.0
38	0x00000000	0.0
39	0x00000000	0.0
40	0x00000000	0.0
41	0x00000000	0.0
42	0x00000000	0.0
43	0x00000000	0.0
44	0x00000000	0.0
45	0x00000000	0.0
46	0x00000000	0.0
47	0x00000000	0.0
48	0x00000000	0.0
49	0x00000000	0.0
50	0x00000000	0.0
51	0x00000000	0.0
52	0x00000000	0.0
53	0x00000000	0.0
54	0x00000000	0.0
55	0x00000000	0.0
56	0x00000000	0.0
57	0x00000000	0.0
58	0x00000000	0.0
59	0x00000000	0.0
60	0x00000000	0.0
61	0x00000000	0.0
62	0x00000000	0.0
63	0x00000000	0.0

weight f4 [64]
0	0x3f800000	1.0
1	0x3f800000	1.0
2	0x3f800000	1.0
3	0x3f800000	1.0
4	0x3f800000	1.0
5	0x3f800000	1.0
6	0x3f800000	1.0
7	0x3f800000	1.0
8	0x3f800000	1.0
9	0x3f800000	1.0
10	0x3f800000	1.0
11	0x3f800000	1.0
12	0x3f800000	1.0
13	0x3f800000	1.0
14	0x3f800000	1.0
15	0x3f800000	1.0
16	0x3f800000	1.0
17	0x3f800000	1.0
18	0x3f800000	1.0
19	0x3f800000	1.0
20	0x3f800000	1.0
21	0x3f800000	1.0
22	0x3f800000	1.0
23	0x3f800000	1.0
24	0x3f800000	1.0
25	0x3f800000	1.0
26	0x3f800000	1.0
27	0x3f800000	1.0
28	0x3f800000	1.0
29	0x3f800000	1.0
30	0x3f800000	1.0
31	0x3f800000	1.0
32	0x3f800000	1.0
33	0x3f800000	1.0
34	0x3f800000	1.0
35	0x3f800000	1.0
36	0x3f800000	1.0
37	0x3f800000	1.0
38	0x3f800000	1.0
39	0x3f800000	1.0
40	0x3f800000	1.0
41	0x3f800000	1.0
42	0x3f800000	1.0
43	0x3f800000	1.0
44	0x3f800000	1.0
45	0x3f800000	1.0
46	0x3f800000	1.0
47	0x3f800000	1.0
48	0x3f800000	1.0
49	0x3f800000	1.0
50	0x3f800000	1.0
51	0x3f800000	1.0
52	0x3f800000	1.0
53	0x3f800000	1.0
54	0x3f800000	1.0
55	0x3f800000	1.0
56	0x3f800000	1.0
57	0x3f800000	1.0
58	0x3f800000	1.0
59	0x3f800000	1.0
60	0x3f800000	1.0
61	0x3f800000	1.0
62	0x3f800000	1.0
63	0x3f800000	1.0

bias f4 [64]
0	0x00000000	0.0
1	0x00000000	0.0
2	0x00000000	0.0
3	0x00000000	0.0
4	0x00000000	0.0
5	0x00000000	0.0
6	0x00000000	0.0
7	0x00000000	0.0
8	0x00000000	0.0
9	0x00000000	0.0
10	0x00000000	0.0
11	0x00000000	0.0
12	0x00000000	0.0
13	0x00000000	0.0
14	0x00000000	0.0
15	0x00000000	0.0
16	0x00000000	0.0
17	0x00000000	0.0
18	0x00000000	0.0
19	0x00000000	0.0
20	0x00000000	0.0
21	0x00000000	0.0
22	0x00000000	0.0
23	0x00000000	0.0
24	0x00000000	0.0
25	0x00000000	0.0
26	0x00000000	0.0
27	0x00000000	0.0
28	0x00000000	0.0
29	0x00000000	0.0
30	0x00000000	0.0
31	0x00000000	0.0
32	0x00000000	0.0
33	0x00000000	0.0
34	0x00000000	0.0
35	0x00000000	0.0
36	0x00000000	0.0
37	0x00000000	0.0
38	0x00000000	0.0
39	0x00000000	0.0
40	0x00000000	0.0
41	0x00000000	0.0
42	0x00000000	0.0
43	0x00000000	0.0
44	0x00000000	0.0
45	0x00000000	0.0
46	0x00000000	0.0
47	0x00000000	0.0
48	0x00000000	0.0
49	0x00000000	0.0
50	0x00000000	0.0
51	0x00000000	0.0
52	0x00000000	0.0
53	0x00000000	0.0
54	0x00000000	0.0
55	0x00000000	0.0
56	0x00000000	0.0
57	0x00000000	0.0
58	0x00000000	0.0
59	0x00000000	0.0
60	0x00000000	0.0
61	0x00000000	0.0
62	0x00000000	0.0
63	0x00000000	0.0
