backend/stock_transformer_model.pt (torch, 617855 bytes, 51 tensors)

weight f4 [64, 8]
000000 52 47 92 3d 35 bd 23 be e7 4f 5b 3e 3b 50 11 3e
       0.071425095 -0.15990146 0.21417199 0.14190762
000010 c5 33 8f 3d c8 0b 0c bd 4b c3 92 be 7e fb 90 bd
       0.06992296 -0.034190923 -0.28664622 -0.07079218
000020 98 2f 79 be c9 50 6e 3e 01 1c 87 be 18 7b 37 bc
       -0.24334562 0.23273005 -0.26388553 -0.011198781
000030 99 92 a0 be 3f f6 88 bd 4d 55 33 3e 0a 5c 55 be
       -0.31361845 -0.06687593 0.17513008 -0.20835891
000040 84 fe a3 bd 3c 18 ae 3e a4 80 9a be 4b ac 78 bc
       -0.080075294 0.34002864 -0.3017627 -0.015177797
000050 a0 e0 85 bd 78 57 4f 3e 17 92 9b 3e 26 65 06 3d
       -0.065369844 0.2024821 0.30384895 0.032811306
000060 ec b8 da bd ac 18 57 bd 9a 7a 4f be f6 ed b1 3e
       -0.10679802 -0.052513763 -0.20261613 0.34751862
000070 fd ba 9d be 31 f8 99 3e f8 96 a3 3e 86 ad 78 3d
       -0.30806723 0.30072168 0.31951118 0.06071236
000080 cc 22 0f be 89 b1 43 be 84 c3 d9 bd 80 84 a1 3d
       -0.13978118 -0.19110693 -0.10632995 0.078866005
000090 94 22 2b be 23 4f a3 bd bd be 64 be 5a 13 5b be
       -0.1671241 -0.079740785 -0.22338386 -0.21394101
0000a0 e2 ab 7a bb 7b ee 77 bb f4 a2 12 be bf 61 8f be
       -0.0038249423 -0.0037831354 -0.14319974 -0.28004262
0000b0 57 31 87 be bf 98 37 bc f9 a0 07 3e f9 57 8b 3e
       -0.2640483 -0.011205851 0.13245 0.27215555
0000c0 fb c3 19 3e 10 af 07 3c ac 2a c8 bd bf 2a dd 3b
       0.15016167 0.008281484 -0.09773764 0.0067494805
0000d0 74 1d 62 3e 8c de 0f 3e 68 a4 3a be 7c 2a 25 3d
       0.22081548 0.14049739 -0.18226779 0.04032372
0000e0 09 7f 19 3e 87 e5 93 be fa ba 09 be 6f 8a 38 3e
       0.14989866 -0.28886053 -0.13450232 0.18021558
0000f0 49 d5 58 be d8 59 a7 be 16 a2 50 be 4b 03 30 be
       -0.21175112 -0.32685733 -0.20374331 -0.17188756
000100 6b bf 00 3d 49 f4 0b bd 04 8b 5d be 9c c4 5f be
       0.03143255 -0.034168515 -0.21635062 -0.21852344
000110 ae e6 9b 3e 45 93 75 3e c6 e9 9b 3e 85 23 c3 3d
       0.30449432 0.2398196 0.30451792 0.09528259
000120 6a ce 70 be f4 76 6b be b5 4d f8 3d fe d8 c5 bc
       -0.2351624 -0.22994596 0.121241964 -0.024151322
000130 bf cf c7 b9 b2 46 ec bd 93 ba a5 3e d3 e4 45 be
       -0.0003811102 -0.115369216 0.32368907 -0.19325571
000140 58 e4 ad 3e d4 85 7c 3e a7 07 4f 3e 22 e4 97 bd
       0.33963275 0.24660426 0.20217763 -0.0741656
000150 df f8 2a 3e 1c 90 07 be 88 fd 2b 3e 4d 2e 85 be
       0.166965 -0.13238567 0.16795933 -0.26011887
000160 68 0e 9b be 64 a7 9f 3d bf 66 e2 3d 68 5b 90 be
       -0.3028443 0.07795599 0.110547535 -0.28194737
000170 8e 7d 9b be 42 f6 83 be 63 6b b4 3c 49 76 05 be
       -0.30369228 -0.25773817 0.022023862 -0.13033403
000180 ed 08 37 3d 6e 9d a2 bd bb 01 85 3e f8 e5 a7 be
       0.044686247 -0.079401836 0.25977883 -0.3279264
000190 04 70 3a be 3a f9 56 bd 6b 40 89 be 72 e6 3d be
       -0.18206793 -0.052483775 -0.2680696 -0.18544939
0001a0 f8 1a 11 3e 4b e1 a7 3e 21 68 9e 3e e6 c9 02 3e
       0.14170444 0.32789072 0.3093882 0.1277233
0001b0 8f 85 8a b9 bd ad e1 bc 14 8a 20 be d8 8c 7d 3c
       -0.0002642092 -0.027548665 -0.15677673 0.015475474
0001c0 b4 45 d9 bd 7f 06 1c 3d 9f d0 ab be c6 6c b3 bd
       -0.10608998 0.038092133 -0.33557603 -0.08760981
0001d0 ff ca 31 3e 7b 72 87 3e 00 f0 28 be 81 79 f3 3d
       0.17362593 0.2645453 -0.16497803 0.118884094
0001e0 b7 6c 03 be 55 ea a5 be 79 04 a6 be aa 34 82 be
       -0.1283444 -0.32405344 -0.32425287 -0.25430804
0001f0 45 ca 93 3e 55 0e 95 3e 61 ab e6 bd e0 57 22 3e
       0.28865257 0.29112497 -0.11263157 0.15853834
000200 fe 33 65 be 94 aa e5 3d 9d 4a 8b bd 14 91 23 be
       -0.22383115 0.11214176 -0.06801341 -0.15973312
000210 2b 65 9c 3e d4 5e a8 3e 1c aa 0f be 9c 69 9c be
       0.30545935 0.32884848 -0.14029735 -0.30549324
000220 e9 04 f0 bd a8 26 33 3c 7c c2 65 be 80 41 9e bd
       -0.117196865 0.010934509 -0.22437471 -0.07727337
000230 fc 2f 10 3e 69 f1 e4 bd 6a 52 4c 3d e3 fc 60 3e
       0.14080805 -0.11178858 0.049883284 0.21971469
000240 48 7a 97 be bc d8 a4 3e b6 c1 bf bd ab 5a 55 3e
       -0.2958548 0.32196605 -0.09363119 0.20835368
000250 03 fe 8e 3e 65 49 97 3e a7 94 8e bd e3 2c 82 3e
       0.2792817 0.29548183 -0.06961947 0.2542487
000260 7d f1 a2 3e ae 18 b3 39 69 ac 8e be db cd 16 be
       0.31824866 0.00034159928 -0.27865914 -0.14726965
000270 dd 7c 42 3e 99 4e 19 be 07 bd 25 3e 00 69 87 be
       0.18992944 -0.14971389 0.1618539 -0.26447296
000280 67 d6 31 3d c4 c8 7d 3e 77 c8 91 3e b4 9c 27 3e
       0.04341736 0.24783617 0.28473255 0.16368371
000290 86 72 93 3e 1d f0 97 3e 5f 92 e5 bc 9b df a1 3e
       0.28798312 0.2967538 -0.028023897 0.3161591
0002a0 0c 42 32 be 4f 5d 51 be 7b f7 85 be 68 d8 9f be
       -0.17408007 -0.2044575 -0.26165375 -0.31219792
0002b0 4d 9e 82 3e dd aa 9f 3e aa ae 90 be 09 91 98 3e
       0.255114 0.31185046 -0.28258258 0.29798153
0002c0 cf a8 41 be 47 56 8c 3b af e6 db 3d 2f f2 b3 bb
       -0.18912052 0.004282746 0.10737359 -0.005491517
0002d0 5d 98 19 be 06 7b 4d bc 9e 7a 9d 3d d0 c5 51 3e
       -0.14999528 -0.012541538 0.07689403 0.20485616
0002e0 d6 da a1 3e a2 59 ad bc 59 f3 1b 3e a9 48 93 3e
       0.3161227 -0.021160904 0.15229549 0.28766373
0002f0 e5 a4 00 bc f7 9d 0c bd d4 f2 8b 3e 8d 8f 53 be
       -0.007851814 -0.034330335 0.273337 -0.20660229
000300 e8 71 75 bd 12 dc 94 bd b8 84 5a be 38 ed fe 3d
       -0.059923083 -0.072685376 -0.2133969 0.1244759
000310 5e e8 80 be c2 87 89 bd 4d 76 9f 3e de 4f 77 be
       -0.25177282 -0.06715347 0.31144944 -0.2415156
000320 b6 86 20 3e bb a8 01 3e 60 89 d9 3d d4 34 0a 3e
       0.15676388 0.12662022 0.10621905 0.13496715
000330 dc 88 a2 be 0f 79 16 be 4a ce 8a be 07 be ab 3e
       -0.3174504 -0.14694618 -0.2711051 0.33543417
000340 01 5a 2c be 91 51 ee bd c6 4e bd bd f6 23 1a bc
       -0.16831209 -0.11636651 -0.092435405 -0.009407988
000350 cb 15 10 bb ec ba 89 3b 5a 76 79 3e 27 24 df 3d
       -0.0021985646 0.004203191 0.24361554 0.108955674
000360 51 00 95 bd f1 15 c7 3a 89 43 b0 3e 73 c1 1f 3e
       -0.07275451 0.0015189034 0.34426525 0.15601139
000370 0b 6d 27 be c2 f0 79 3e cc 91 d6 3d f9 96 b3 bc
       -0.1635019 0.24408248 0.10477027 -0.021922575
000380 38 be 64 be 13 61 a2 be 84 29 94 3d 47 84 83 be
       -0.22338188 -0.31714687 0.07234481 -0.25686857
000390 e9 1e a1 3e 4b 14 fc 3d 1f 5b 3f be 6d 4f 27 be
       0.31468895 0.12308558 -0.18687104 -0.16338892
0003a0 72 62 a2 be ca cb 8a be 60 61 1f be 8b bd ae 3e
       -0.31715733 -0.27108604 -0.1556449 0.34128985
0003b0 24 56 53 3e 58 7b ee bd ee e6 83 be 83 0b 7d be
       0.20638329 -0.1164462 -0.25762123 -0.24711423
0003c0 2f de 7f be 61 48 82 be 91 35 a3 be 14 d7 af 3e
       -0.249871 -0.25445846 -0.31876805 0.3434378
0003d0 76 76 af 3e bf 48 42 3e 7b 3b 95 3e ad 9a 92 3e
       0.34270066 0.18973063 0.29146942 0.28633633
0003e0 82 ec 92 3e ec 65 76 bd e5 ee 9e 3e 47 d8 ad be
       0.28696066 -0.060155794 0.31041637 -0.3395407
0003f0 ac 81 df 3b 1f c2 76 be d6 39 2a bd db 44 93 3e
       0.006820878 -0.24097489 -0.041559063 0.2876347

bias f4 [64]
000000 3b 7b e3 3d 50 ef e1 bd db 03 8a be 31 71 48 be
       0.11107489 -0.11031973 -0.26956066 -0.19574429
000010 d4 f2 5a be 81 1d 72 bd 32 f1 1d 3e 25 33 6b be
       -0.21381694 -0.05911017 0.1542404 -0.22968729
000020 38 32 8f be ec a6 4f be 23 8b b5 3b 70 d3 a3 be
       -0.27968 -0.2027852 0.005540268 -0.31997252
000030 39 cf 92 3c 06 a4 ad bc 37 7c a3 bd a4 16 5f bd
       0.017921077 -0.021196377 -0.079826765 -0.05446495
000040 0a 09 ae be a8 67 6c 3e 68 b5 85 3c b5 f0 26 3e
       -0.3399127 0.23086417 0.016321853 0.1630276
000050 1a f6 ac be a8 02 8a 3d 72 8c 02 be 03 eb 26 3e
       -0.3378151 0.06738788 -0.12748888 0.16300587
000060 03 d0 6f 3e f2 9b 74 be 80 50 96 be e2 d3 a4 3d
       0.23419194 -0.23887613 -0.29358292 0.08048226
000070 54 68 96 3e e3 d4 0c 3e 98 09 81 be 1f 28 29 be
       0.2937647 0.13753085 -0.25202632 -0.16519211
000080 be a7 b5 bd fe cb 77 be 22 88 8e 3e 01 00 96 bc
       -0.08869885 -0.2419891 0.27838236 -0.018310549
000090 68 80 8d 3e fc a7 45 3e ac e0 7f be 22 a4 8e 3e
       0.2763703 0.19302362 -0.2498805 0.27859598
0000a0 59 f7 06 3e 2f a6 ae bd 9e be 9d 3e 06 2c 1e be
       0.13180293 -0.08527791 0.30809492 -0.15446481
0000b0 71 1f 8b 3e 96 cf fd 3c 74 26 b0 3c d0 00 ad 3d
       0.27172425 0.030982774 0.02150271 0.084474206
0000c0 9f c1 25 3e 77 56 82 bd 1f c3 53 be 53 ce e7 bc
       0.16187142 -0.06364148 -0.20679902 -0.028296625
0000d0 45 dc da bb 59 6f a5 3e d8 11 79 3e a2 93 9a 3e
       -0.00667909 0.32311514 0.24323213 0.3019076
0000e0 af cd 11 be 49 a6 14 3d 4e c4 83 be 93 12 90 be
       -0.14238618 0.036291394 -0.25735706 -0.2813917
0000f0 ad e8 4a 3e d3 07 7b be 0b f8 38 3e 1c f9 90 be
       0.19815321 -0.24514703 0.18063371 -0.28315055

in_proj_weight f4 [192, 64]
000000 b9 b7 15 bd e5 a8 4d 3d d1 9f 17 3e 16 40 8d 3d
       -0.036552165 0.0502099 0.14807059 0.06896989
000010 ba 65 ff bd 2e 69 d0 bd 93 c9 16 be d1 19 98 bd
       -0.12470575 -0.101763114 -0.14725332 -0.07426799
000020 e2 76 56 3d a0 29 b3 3c 65 e2 11 bd 21 b7 1c 3e
       0.05235947 0.021870434 -0.035616297 0.15304233
000030 3e 8d 04 3c af 5e 38 3d 2f e0 91 bd e2 1a 8b bd
       0.008090315 0.045012172 -0.07122838 -0.06792237
000040 4e 74 de 3c 7e 17 0d 3e c2 e9 ce 3d 1d f7 0b 3e
       0.027155068 0.13778493 0.101031795 0.13668485
000050 3b ff ce bd 3a b5 1c 3d 4e 0b 7d bd d3 72 d2 3d
       -0.10107275 0.03825877 -0.06177836 0.10275807
000060 d7 5b ce 3b 63 1b 0a be a4 39 0d 3e 29 aa bb 3d
       0.0062975693 -0.1348701 0.1379152 0.09163315
000070 1d 1f bf 3d 9e 1e a4 bd 0f 19 73 3d 84 c7 86 3d
       0.09332106 -0.08013652 0.05935007 0.06581023
000080 1e 1d a9 bd f4 15 03 3d 67 ee db 3d 17 4e c9 3d
       -0.08257507 0.032003358 0.10738831 0.098293476
000090 b9 4d 90 3d 6f 35 83 3d 86 35 1b 3e 13 d1 3f bc
       0.070460744 0.06406676 0.15157136 -0.011707562
0000a0 3f f7 2f 3d 76 39 e0 bc 69 0f cf bd 0e 49 ac 3b
       0.0429604 -0.02737115 -0.10110361 0.0052577322
0000b0 bd fc 92 3d 20 f9 12 be 27 73 e9 bd c6 5d d0 3b
       0.07177112 -0.14352846 -0.11398917 0.006358835
0000c0 7c 20 d8 3d 27 af 1b bd 1e 7a 0b 3e 24 75 85 bd
       0.10553071 -0.038008835 0.13620803 -0.065164834
0000d0 0b 6d 16 3b 55 80 4c 3d e5 78 18 be 49 62 0d 3e
       0.0022953178 0.049927074 -0.14889868 0.13807024
0000e0 33 f9 98 bd 71 df c8 bd 7a 8a 99 3d 03 4c 81 bd
       -0.07469406 -0.09808243 0.074971154 -0.06313326
0000f0 92 0a 3d 3b ba 9f 47 3d bc d6 81 3c 19 3d 88 3d
       0.0028845412 0.04873631 0.015849464 0.066522785
000100 80 55 d7 3d 11 08 c4 bd 97 aa 89 3d f6 65 b1 bd
       0.10514355 -0.09571851 0.067219906 -0.08662026
000110 b7 34 e6 3d 04 d6 af bd d0 08 a9 3d c8 36 34 bd
       0.11240523 -0.08585742 0.08253634 -0.043997556
000120 66 9c b2 bc 0d 23 0d 3e 09 cd e9 3d cb ef f7 3a
       -0.021803092 0.13782902 0.114160605 0.0018916068
000130 d2 3b 14 3e 35 90 ff bd 56 47 ff bd ac 41 99 3d
       0.14475945 -0.12478677 -0.12464778 0.07483229
000140 c5 0b e0 3d 67 df 11 3e 80 fd 01 be 20 e9 63 bd
       0.10939745 0.14245377 -0.12694359 -0.055642247
000150 7b 95 b3 bd 04 b8 29 bd cd a3 15 be 79 92 b1 bc
       -0.087687455 -0.041435257 -0.14613266 -0.021676289
000160 13 dc 96 bc 80 ef 6b bd d3 c1 a6 3d 12 fe 15 be
       -0.018415486 -0.057601452 0.08142438 -0.14647701
000170 7d 7b 13 be a8 8d 39 bc bd 21 46 bc 20 15 70 3d
       -0.14402576 -0.011325277 -0.012093005 0.058613896
000180 bc 32 d0 bd aa 29 4c bd 95 ee d5 3d 22 93 98 3d
       -0.10165927 -0.04984442 0.104458965 0.07449938
000190 51 b7 09 3e 29 fe 3d 3d 47 1a ce 3d 6a 9d 6a 3d
       0.13448836 0.046384964 0.10063606 0.057279028
0001a0 4e d1 d1 bd d1 62 b8 bd 26 e7 d7 bd e6 d6 9e bd
       -0.10245 -0.09003223 -0.10542135 -0.077558324
0001b0 9b 40 c7 bd 1b e1 97 bd a6 0b 4f 3d 25 70 9a bb
       -0.097291194 -0.07415982 0.05054822 -0.0047130757
0001c0 ae 78 e1 bd 12 01 a7 3d 3b 67 8b ba 7c 4f 04 3e
       -0.11009346 0.08154501 -0.0010635623 0.12920946
0001d0 97 ab 75 bd c4 13 da 3d bd ff 11 3e d9 c7 cd 3d
       -0.059978094 0.10648301 0.14257713 0.100478835
0001e0 be a2 1a bd 4e e2 62 ba fc 42 eb 3c b3 bf eb 3d
       -0.03775286 -0.0008654938 0.028718464 0.11511173
0001f0 34 7a e9 3d c0 b7 8e 3c 7d 5c 42 3b c2 a0 14 be
       0.114002615 0.017421603 0.0029657178 -0.14514449
000200 58 61 16 be b1 a3 ec 3d 5f b9 e6 bd 62 1b 1c 3e
       -0.14685571 0.11554659 -0.112658255 0.1524482
000210 2d ff a6 bd a9 61 56 3c f8 62 fa bd 39 8a 3e bc
       -0.0815414 0.013084807 -0.12225908 -0.011629635
000220 0f 59 e7 3d 51 e4 0e 3d 67 6a b5 bc aa cf 32 3d
       0.112962835 0.03488571 -0.022145463 0.043655075
000230 38 10 f6 3d 81 fd 12 3e d4 08 86 3d 8b 38 b0 bd
       0.12014812 0.14354517 0.065446526 -0.08604535
000240 fa 92 c1 3c 85 ea dd 3d 94 72 3b bc a8 a1 6f bd
       0.023629654 0.10835747 -0.011440892 -0.058503777
000250 9b 99 cd 3d 17 a4 b2 3d bf 75 10 be c0 d0 8b bc
       0.100390635 0.08722704 -0.14107417 -0.017067313
000260 d5 9e 10 3d 9d 5f 8f 3b e2 01 6d bd 6d 19 de 3d
       0.035307724 0.0043754117 -0.057863124 0.10844693
000270 72 ef 8b 3c 99 57 11 bc c8 25 09 3d f9 af ac bc
       0.01708195 -0.008870983 0.033483297 -0.021080004
000280 38 45 5d bc 00 66 e1 bd 10 1a d8 bd 78 92 d3 3c
       -0.013505273 -0.11005783 -0.10551846 0.025826678
000290 0f 5c 19 bd 1f cc 43 bd 4a 9b b6 3d 09 ad fc bd
       -0.03744131 -0.047802087 0.08916338 -0.12337691
0002a0 ed 2a 7e bd d8 9f cc 3d f9 f7 5f bd 59 40 19 be
       -0.062052656 0.09991425 -0.054679845 -0.14965953
0002b0 ce 33 ab bc 24 a7 1a be cb 0c f1 3d ae 18 02 bd
       -0.020898726 -0.15102822 0.11770018 -0.031761818
0002c0 24 af fe 3b cb ec b8 3d 40 4b 09 3e 21 96 97 3d
       0.0077723432 0.0902954 0.13407612 0.07401682
0002d0 94 3b 0b bd 4a 95 85 bd 87 2a b5 3c 97 9b d8 bd
       -0.033992365 -0.06522615 0.022115005 -0.105765514
0002e0 67 13 18 3e 9c c2 07 3e 7b 4d 9f 3d ae 55 89 bb
       0.14851151 0.13257831 0.0777845 -0.004191122
0002f0 c2 be 1a 3e 35 92 0a 3e 56 f3 1f bd 2b 0f 02 bd
       0.15111831 0.13532336 -0.039050423 -0.031752747
000300 87 c4 cc 3d 1f 7c da bd 4d b4 34 3d d6 3e c6 bd
       0.09998422 -0.106682055 0.04411726 -0.09679954
000310 7c 68 8a 3a f0 3b af bd 56 15 59 bc 33 ea 83 3d
       0.0010559703 -0.08556354 -0.013249716 0.06441154
000320 67 38 20 3c 8c 9c 1c 3e d7 8f 95 bd f2 de 80 bd
       0.009779072 0.15294093 -0.07302826 -0.062925234
000330 3b f7 7c 3d bf 27 d9 3c 21 bb c5 bc f3 ca e5 bc
       0.061759215 0.02650821 -0.024137082 -0.028050875
000340 01 13 f8 3d 42 8f 12 3e 92 4d 07 3e d0 31 5d bd
       0.12113 0.14312461 0.13213184 -0.054002583
000350 71 d5 ca 3d d7 bc 72 bd 0d 87 9e 3d 36 fa f0 3d
       0.09903992 -0.059262123 0.07740603 0.11766474
000360 ed 47 0a 3e 6a f9 eb bd 69 64 c2 bd 2a 43 0c 3e
       0.13504 -0.11522181 -0.09491808 0.13697496
000370 28 6e 6b 3d bf ab 53 3d 88 c2 a8 bd fe d0 0d be
       0.0574781 0.05167746 -0.08240229 -0.13849255
000380 83 b0 1c 3e ca ec 93 3d 4a af 88 bd 06 05 8e bd
       0.15301709 0.07222898 -0.06674059 -0.06934552
000390 f0 0f 8d bd 00 7a 85 bc 85 bd 1c be 4d 46 f6 3d
       -0.068878055 -0.016293526 -0.15306671 0.120251276
0003a0 9e 7b 15 3e c0 a8 e3 3d a9 70 0c 3e 1e 23 fc bc
       0.14597937 0.11116171 0.13714851 -0.030778464
0003b0 3a 78 da 3d a8 69 ff bd b4 4f c2 3d 26 8e c2 3d
       0.10667463 -0.12471324 0.094878584 0.09499769
0003c0 1f 92 0b 3e 60 e7 18 be 71 dc 09 bd 42 a8 c0 3d
       0.1362996 -0.14932013 -0.033657495 0.09407093
0003d0 d0 e4 d4 bd c9 b6 dc bd c8 26 e1 bd 16 ef 95 bd
       -0.10395205 -0.10777051 -0.10993725 -0.07320993
0003e0 8f d2 8a bd 99 5f 13 be 4f 86 f2 bd d2 c4 d8 3d
       -0.06778442 -0.14391936 -0.118420236 0.105844155
0003f0 01 dc a6 3d 3c 1d 4b 3d 66 2c fb 3d 2b 26 f7 3b
       0.08147431 0.049588427 0.12264328 0.007542392

in_proj_bias f4 [192]
000000 00 00 00 00 00 00 00 00 00 00 00 00 00 00 00 00
       0.0 0.0 0.0 0.0
000010 00 00 00 00 00 00 00 00 00 00 00 00 00 00 00 00
       0.0 0.0 0.0 0.0
000020 00 00 00 00 00 00 00 00 00 00 00 00 00 00 00 00
       0.0 0.0 0.0 0.0
000030 00 00 00 00 00 00 00 00 00 00 00 00 00 00 00 00
       0.0 0.0 0.0 0.0
000040 00 00 00 00 00 00 00 00 00 00 00 00 00 00 00 00
       0.0 0.0 0.0 0.0
000050 00 00 00 00 00 00 00 00 00 00 00 00 00 00 00 00
       0.0 0.0 0.0 0.0
000060 00 00 00 00 00 00 00 00 00 00 00 00 00 00 00 00
       0.0 0.0 0.0 0.0
000070 00 00 00 00 00 00 00 00 00 00 00 00 00 00 00 00
       0.0 0.0 0.0 0.0
000080 00 00 00 00 00 00 00 00 00 00 00 00 00 00 00 00
       0.0 0.0 0.0 0.0
000090 00 00 00 00 00 00 00 00 00 00 00 00 00 00 00 00
       0.0 0.0 0.0 0.0
0000a0 00 00 00 00 00 00 00 00 00 00 00 00 00 00 00 00
       0.0 0.0 0.0 0.0
0000b0 00 00 00 00 00 00 00 00 00 00 00 00 00 00 00 00
       0.0 0.0 0.0 0.0
0000c0 00 00 00 00 00 00 00 00 00 00 00 00 00 00 00 00
       0.0 0.0 0.0 0.0
0000d0 00 00 00 00 00 00 00 00 00 00 00 00 00 00 00 00
       0.0 0.0 0.0 0.0
0000e0 00 00 00 00 00 00 00 00 00 00 00 00 00 00 00 00
       0.0 0.0 0.0 0.0
0000f0 00 00 00 00 00 00 00 00 00 00 00 00 00 00 00 00
       0.0 0.0 0.0 0.0
000100 00 00 00 00 00 00 00 00 00 00 00 00 00 00 00 00
       0.0 0.0 0.0 0.0
000110 00 00 00 00 00 00 00 00 00 00 00 00 00 00 00 00
       0.0 0.0 0.0 0.0
000120 00 00 00 00 00 00 00 00 00 00 00 00 00 00 00 00
       0.0 0.0 0.0 0.0
000130 00 00 00 00 00 00 00 00 00 00 00 00 00 00 00 00
       0.0 0.0 0.0 0.0
000140 00 00 00 00 00 00 00 00 00 00 00 00 00 00 00 00
       0.0 0.0 0.0 0.0
000150 00 00 00 00 00 00 00 00 00 00 00 00 00 00 00 00
       0.0 0.0 0.0 0.0
000160 00 00 00 00 00 00 00 00 00 00 00 00 00 00 00 00
       0.0 0.0 0.0 0.0
000170 00 00 00 00 00 00 00 00 00 00 00 00 00 00 00 00
       0.0 0.0 0.0 0.0
000180 00 00 00 00 00 00 00 00 00 00 00 00 00 00 00 00
       0.0 0.0 0.0 0.0
000190 00 00 00 00 00 00 00 00 00 00 00 00 00 00 00 00
       0.0 0.0 0.0 0.0
0001a0 00 00 00 00 00 00 00 00 00 00 00 00 00 00 00 00
       0.0 0.0 0.0 0.0
0001b0 00 00 00 00 00 00 00 00 00 00 00 00 00 00 00 00
       0.0 0.0 0.0 0.0
0001c0 00 00 00 00 00 00 00 00 00 00 00 00 00 00 00 00
       0.0 0.0 0.0 0.0
0001d0 00 00 00 00 00 00 00 00 00 00 00 00 00 00 00 00
       0.0 0.0 0.0 0.0
0001e0 00 00 00 00 00 00 00 00 00 00 00 00 00 00 00 00
       0.0 0.0 0.0 0.0
0001f0 00 00 00 00 00 00 00 00 00 00 00 00 00 00 00 00
       0.0 0.0 0.0 0.0
000200 00 00 00 00 00 00 00 00 00 00 00 00 00 00 00 00
       0.0 0.0 0.0 0.0
000210 00 00 00 00 00 00 00 00 00 00 00 00 00 00 00 00
       0.0 0.0 0.0 0.0
000220 00 00 00 00 00 00 00 00 00 00 00 00 00 00 00 00
       0.0 0.0 0.0 0.0
000230 00 00 00 00 00 00 00 00 00 00 00 00 00 00 00 00
       0.0 0.0 0.0 0.0
000240 00 00 00 00 00 00 00 00 00 00 00 00 00 00 00 00
       0.0 0.0 0.0 0.0
000250 00 00 00 00 00 00 00 00 00 00 00 00 00 00 00 00
       0.0 0.0 0.0 0.0
000260 00 00 00 00 00 00 00 00 00 00 00 00 00 00 00 00
       0.0 0.0 0.0 0.0
000270 00 00 00 00 00 00 00 00 00 00 00 00 00 00 00 00
       0.0 0.0 0.0 0.0
000280 00 00 00 00 00 00 00 00 00 00 00 00 00 00 00 00
       0.0 0.0 0.0 0.0
000290 00 00 00 00 00 00 00 00 00 00 00 00 00 00 00 00
       0.0 0.0 0.0 0.0
0002a0 00 00 00 00 00 00 00 00 00 00 00 00 00 00 00 00
       0.0 0.0 0.0 0.0
0002b0 00 00 00 00 00 00 00 00 00 00 00 00 00 00 00 00
       0.0 0.0 0.0 0.0
0002c0 00 00 00 00 00 00 00 00 00 00 00 00 00 00 00 00
       0.0 0.0 0.0 0.0
0002d0 00 00 00 00 00 00 00 00 00 00 00 00 00 00 00 00
       0.0 0.0 0.0 0.0
0002e0 00 00 00 00 00 00 00 00 00 00 00 00 00 00 00 00
       0.0 0.0 0.0 0.0
0002f0 00 00 00 00 00 00 00 00 00 00 00 00 00 00 00 00
       0.0 0.0 0.0 0.0

weight f4 [64, 64]
000000 08 15 b4 bd ce 94 96 bd 68 91 8c 3d 08 10 a2 3d
       -0.08793074 -0.07352601 0.068636715 0.07913214
000010 e0 ab 4b bc 40 c1 24 3b 2c e8 4c bd 80 83 8f 3b
       -0.012431115 0.00251396 -0.050026104 0.0043796897
000020 04 96 aa 3d 70 ea 0b 3d 46 86 e1 3d 26 08 90 3d
       0.083293945 0.034159124 0.11011939 0.07032804
000030 02 5e a7 bd 88 f8 97 bd 50 a5 04 bc 00 99 d1 3c
       -0.081722274 -0.074204504 -0.008096054 0.025585651
000040 2c 1b 82 3d 44 21 aa bd 60 08 3b 3c 40 fb 56 3c
       0.06352839 -0.08307126 0.011415571 0.013121426
000050 78 2d 00 bd 20 d1 26 bc 90 54 1d bc 54 12 da bd
       -0.031293362 -0.010181695 -0.009602681 -0.10648027
000060 ee 83 d6 3d ce 7e 91 bd c0 a3 8d 3b 50 dc 2b bd
       0.10474382 -0.07104264 0.004322499 -0.041958153
000070 94 08 f5 bd 20 83 7a 3d 00 3d b1 3c 1c 59 26 3d
       -0.11964527 0.061160207 0.021635532 0.040612325
000080 74 7b 8d 3d 10 ff e4 3c 10 fb 71 bd e0 c5 5f 3d
       0.069083124 0.027953655 -0.059077322 0.054632068
000090 84 25 3d 3d c4 f6 0f bd 6c 19 38 3d 64 5c 83 bd
       0.046178356 -0.035147443 0.04494612 -0.064141065
0000a0 20 e4 3d bc 80 7c 8b bd 80 8c 88 bb 80 b4 cd 3a
       -0.011590034 -0.06810856 -0.0041671395 0.0015694052
0000b0 d2 3c a0 3d 90 a4 0c bd d4 06 3f 3d 50 a8 9f 3d
       0.078241006 -0.034336627 0.04663737 0.07795775
0000c0 c0 e6 37 bb dc 7f 60 bd 60 10 7b bc d0 b9 8a 3d
       -0.0028061122 -0.054809436 -0.015323728 0.06773722
0000d0 28 15 c2 3d dc 40 eb 3d 0c 6a b8 bd 24 8f 50 3d
       0.094766915 0.1148698 -0.09004602 0.05091776
0000e0 de a1 b1 bd fa 8c bc bd e8 0f 48 bd 28 36 ab 3c
       -0.08673452 -0.09206577 -0.048843294 0.020899847
0000f0 d4 62 6f 3d 60 19 f8 3d 98 58 3a 3d 02 e8 e3 3d
       0.05844386 0.12114215 0.045494646 0.11128236
000100 80 55 92 3c a8 94 e1 3c c0 50 32 3c 80 40 d0 bc
       0.017863035 0.027536705 0.01088351 -0.025421381
000110 42 f5 fc bd 9a a3 96 bd a4 b1 f6 3d 98 5d 98 3d
       -0.12351467 -0.07355423 0.12045601 0.074397266
000120 04 4c b9 bd 38 84 48 bd 98 f3 66 3d e8 c6 ce bc
       -0.09047702 -0.04895422 0.056384653 -0.02524133
000130 fc 89 0a 3d 4a 67 8b 3d c8 c2 ff 3d 8c 7e 5b 3d
       0.033823 0.0680681 0.124883235 0.05358748
000140 90 65 71 3c 30 56 7a 3d 88 c7 ff 3c e8 6e 4b bd
       0.014733687 0.06111735 0.031223074 -0.049666315
000150 e0 25 b4 3b 80 8f 42 bb 1a 3e e2 3d d0 37 b7 3c
       0.005497679 -0.0029687583 0.11047001 0.02236548
000160 ee 49 86 bd 1c be 12 3d f4 12 7d bd 1e 10 a1 3d
       -0.0655707 0.035825834 -0.061785653 0.07864402
000170 78 e1 ff 3c e0 7d 84 3b 5e b2 ad 3d 48 01 10 bd
       0.031235442 0.004043326 0.084812865 -0.035157472
000180 4e 69 85 bd 88 1c 49 3d d4 74 d5 3d b8 b5 f0 bc
       -0.06514226 0.049099475 0.10422674 -0.029383525
000190 8a 04 fb bd c0 40 1b 3b a0 8d 36 bd 90 3c b7 bd
       -0.12256725 0.0023689717 -0.044568658 -0.08947098
0001a0 5c a4 36 bd e8 09 fe 3c 70 3d bc bd 14 f7 30 3d
       -0.04459034 0.031010583 -0.09191406 0.043204382
0001b0 28 df f5 bd 00 11 ec bd 80 5e c9 ba 7c d1 92 bd
       -0.12005454 -0.1152668 -0.0015363246 -0.07168862
0001c0 a0 ad 21 3d 80 84 60 3b a8 9f c3 bc 00 fd 0f 3b
       0.039472222 0.0034258664 -0.023879841 0.0021970868
0001d0 98 f6 8d bc 90 6c 56 bd a4 12 29 bd b0 d8 9f bc
       -0.0173295 -0.052349627 -0.041277543 -0.019512504
0001e0 4c e1 93 bd 48 15 fb bd 02 b0 a0 bd 70 9b 0e 3c
       -0.07220706 -0.122599185 -0.07846071 0.008704051
0001f0 aa 17 8c 3d 10 e7 c1 bd 6c 76 87 bd fc 69 20 bd
       0.06840451 -0.094679 -0.06614384 -0.039163575
000200 30 60 10 3c dc be 69 3d dc c1 09 3d 26 e5 b8 3d
       0.008811995 0.057066783 0.033632144 0.090280816
000210 80 d2 26 3d ea 41 c7 3d 80 42 eb bc aa d2 b0 bd
       0.040728092 0.09729369 -0.028718233 -0.08633931
000220 60 0b 97 3c 2e 65 ae 3d b0 70 d1 3c 80 c3 3e bc
       0.018438041 0.08515392 0.025566429 -0.0116432905
000230 48 da fc bd ae 72 e6 bd 00 72 db bb dc 8b db 3d
       -0.12346321 -0.11252342 -0.0066969395 0.107200354
000240 b0 17 b7 bc 80 ec 20 3c c0 af 0b 3b 40 ed d8 3d
       -0.022350162 0.009822011 0.0021314472 0.10592127
000250 26 30 f9 3d 9c 16 ee bd b0 59 a0 bd 10 4c 46 3d
       0.12167387 -0.11625406 -0.078296065 0.048412383
000260 7a 49 af bd 82 f2 d8 3d 90 6d e4 bc 76 89 d5 bd
       -0.085589364 0.1059313 -0.027884275 -0.10426609
000270 00 a1 3c 3d a0 4f 87 3d d0 37 fd bd c0 29 8a bc
       0.04605198 0.06606984 -0.12364161 -0.016865611
000280 40 79 06 3c 70 24 3e bd 70 09 a0 3d 38 97 ca bd
       0.008207619 -0.04642147 0.078143 -0.09892124
000290 7c 1b d3 bd 00 e0 dd 3b cc c6 4c bd 14 c2 5b 3d
       -0.103079766 0.0067710876 -0.049994275 0.053651884
0002a0 c8 68 c2 bc 8e 5c e0 bd 90 52 c3 3c 30 47 27 bd
       -0.023731604 -0.109551534 0.02384308 -0.040839374
0002b0 90 1c d0 bc 16 25 ad 3d 40 eb fd bb 58 e1 41 bd
       -0.025404245 0.08454339 -0.0077489913 -0.047334045
0002c0 18 2c a9 3c 2c 30 91 3d ac cd 77 bd a6 f1 d4 bd
       0.020650908 0.07089266 -0.06049888 -0.10397653
0002d0 80 df 18 3b b8 56 8c bd 50 3a 89 bc 9e 3f d0 bd
       0.0023326576 -0.06852478 -0.016751438 -0.10168384
0002e0 f4 d2 1e bd 4c d7 fa 3d 48 9f a1 bd bc 92 30 bd
       -0.0387754 0.12248096 -0.078917086 -0.043108687
0002f0 8e 77 d4 3d b0 e3 40 bc d4 12 6d bd ac a3 8b 3d
       0.10374366 -0.011773035 -0.057879284 0.06818327
000300 28 35 4c 3d 6c 0f e3 3d 7e ec f2 3d 70 35 52 3c
       0.04985538 0.11086926 0.118615136 0.012830123
000310 38 c3 81 bd 80 4a 82 3c 50 de 87 bc 48 24 aa 3d
       -0.06336063 0.015904665 -0.016585499 0.08307701
000320 54 74 c5 bd 90 3d 52 3d 68 8b 50 3d 04 5c 68 3d
       -0.096413285 0.05132824 0.0509142 0.056728378
000330 b8 77 b5 bc 6e 29 8d bd e2 36 c3 bd 3a 2b 89 bd
       -0.022151813 -0.06892668 -0.095319524 -0.06697698
000340 16 a7 cf 3d 64 68 e6 3d aa 63 9e bd 40 07 08 3c
       0.10139291 0.1125038 -0.07733853 0.00830251
000350 2c bf 22 3d 0c d4 2a 3d 54 39 19 bd 08 4e 8c bd
       0.039733097 0.04170613 -0.037408188 -0.06850821
000360 d8 91 aa 3d de 2b ef bd 94 bc 4f bd d0 4d 6d 3c
       0.08328599 -0.11678289 -0.05071695 0.014483884
000370 06 80 d8 bd 42 69 9b 3d aa fd fa 3d 36 22 8e 3d
       -0.105712935 0.07588436 0.12255414 0.06940119
000380 7c fe ae 3d 88 5a 4e bd 20 08 86 3b f0 a0 f4 bc
       0.08544633 -0.050379306 0.004090324 -0.029861897
000390 00 6d 2a 3b e8 9c ad 3c 40 38 b9 3c 04 70 0b 3d
       0.002600491 0.021192983 0.02260983 0.034042373
0003a0 6c 2b 7c 3d 78 31 a6 3d 1c 8b f0 3d cc 80 c0 bd
       0.061564848 0.08114904 0.11745283 -0.09399566
0003b0 08 c0 97 3d 40 a8 4d bb 20 5b 57 bc 68 c5 4f 3d
       0.07409674 -0.0031380802 -0.0131442845 0.05072537
0003c0 aa ce c1 bd 9e cc 98 bd 00 fb be bb 58 0c e6 bc
       -0.09463246 -0.07460903 -0.0058282614 -0.028082058
0003d0 f0 de 29 3c 04 96 a0 3d e4 6b 2e 3d 48 ed 4d bd
       0.010368094 0.07841113 0.04258336 -0.050275117
0003e0 00 38 37 3c 90 94 a8 bd 5a 6a a2 bd fc 97 f4 3d
       0.011182785 -0.08231461 -0.07930441 0.11943051
0003f0 38 4f 91 3c 00 d8 e0 3d b0 7d a0 3d 04 60 4a 3d
       0.01773797 0.10978699 0.07836473 0.049407974

bias f4 [64]
000000 00 00 00 00 00 00 00 00 00 00 00 00 00 00 00 00
       0.0 0.0 0.0 0.0
000010 00 00 00 00 00 00 00 00 00 00 00 00 00 00 00 00
       0.0 0.0 0.0 0.0
000020 00 00 00 00 00 00 00 00 00 00 00 00 00 00 00 00
       0.0 0.0 0.0 0.0
000030 00 00 00 00 00 00 00 00 00 00 00 00 00 00 00 00
       0.0 0.0 0.0 0.0
000040 00 00 00 00 00 00 00 00 00 00 00 00 00 00 00 00
       0.0 0.0 0.0 0.0
000050 00 00 00 00 00 00 00 00 00 00 00 00 00 00 00 00
       0.0 0.0 0.0 0.0
000060 00 00 00 00 00 00 00 00 00 00 00 00 00 00 00 00
       0.0 0.0 0.0 0.0
000070 00 00 00 00 00 00 00 00 00 00 00 00 00 00 00 00
       0.0 0.0 0.0 0.0
000080 00 00 00 00 00 00 00 00 00 00 00 00 00 00 00 00
       0.0 0.0 0.0 0.0
000090 00 00 00 00 00 00 00 00 00 00 00 00 00 00 00 00
       0.0 0.0 0.0 0.0
0000a0 00 00 00 00 00 00 00 00 00 00 00 00 00 00 00 00
       0.0 0.0 0.0 0.0
0000b0 00 00 00 00 00 00 00 00 00 00 00 00 00 00 00 00
       0.0 0.0 0.0 0.0
0000c0 00 00 00 00 00 00 00 00 00 00 00 00 00 00 00 00
       0.0 0.0 0.0 0.0
0000d0 00 00 00 00 00 00 00 00 00 00 00 00 00 00 00 00
       0.0 0.0 0.0 0.0
0000e0 00 00 00 00 00 00 00 00 00 00 00 00 00 00 00 00
       0.0 0.0 0.0 0.0
0000f0 00 00 00 00 00 00 00 00 00 00 00 00 00 00 00 00
       0.0 0.0 0.0 0.0

weight f4 [128, 64]
000000 2a 35 f2 bd 80 3f ec ba c4 12 7d 3d 52 dc f9 3d
       -0.118265465 -0.0018024296 0.061785474 0.12200226
000010 a4 d8 72 bd 92 ef ef bd e4 c0 f7 bd 76 9c e4 bd
       -0.059288636 -0.11715616 -0.12097338 -0.11162655
000020 e0 92 94 bc da 62 be 3d 0a 08 ef bd 28 df 99 bc
       -0.018136442 0.09296198 -0.11671455 -0.018783167
000030 50 76 5a bd 08 0d e9 3d 90 c5 22 bd 50 df 91 3d
       -0.053335488 0.11379439 -0.03973919 0.071226716
000040 a8 6c 7c bd 22 72 a1 bd ee 45 87 3d 1c 06 80 3d
       -0.06162706 -0.07883097 0.06605135 0.06251165
000050 9e 65 ad bd 80 44 b3 ba a0 d7 0b bd 48 16 c8 3c
       -0.084666476 -0.0013677031 -0.034141183 0.024424687
000060 28 65 9a bc 88 8d 2d bd 9c 29 e1 bd 70 87 a9 3c
       -0.018847063 -0.042371303 -0.109942645 0.020694464
000070 40 ad 57 bb 1c f3 e7 3d 8c 66 14 bd 74 fd 1b 3d
       -0.0032909662 0.11325666 -0.03623061 0.03808351
000080 84 dc d1 bd 00 78 be bb fa 0c fc bd 98 1f a2 bc
       -0.10247138 -0.005812645 -0.123071626 -0.019790456
000090 00 e6 09 ba d0 a5 00 3d be b6 bf bd 4e 86 d7 3d
       -0.0005260408 0.03140813 -0.09361027 0.105236635
0000a0 cc 18 f0 bd e4 e2 03 3d 5a 89 99 3d 30 46 61 3c
       -0.1172348 0.0321988 0.07496901 0.013749644
0000b0 d8 f9 e3 bc c0 5e 4c 3b 64 f3 f8 bd 0c 2a 6e bd
       -0.027829096 0.0031184405 -0.12155798 -0.058145568
0000c0 3a 33 c9 3d 28 52 e3 bd 84 b3 6a bd 12 34 fa bd
       0.09824224 -0.110996544 -0.057300106 -0.12216963
0000d0 08 58 3e 3d 12 1c 80 3d 8a 19 b0 bd 54 a1 0b bd
       0.046470672 0.06255354 -0.08598621 -0.0340894
0000e0 28 52 b4 3d 7a da b1 bd 80 1d a6 3d 0c 30 6a bd
       0.088047326 -0.08684249 0.081110954 -0.057174727
0000f0 6c b3 77 bd 40 18 fd bd dc 59 db 3d 34 04 76 3d
       -0.060473844 -0.12358141 0.10710499 0.060062602
000100 ee 5e 89 bd bc 2f b4 3d 16 bd f8 3d 54 e5 c5 3d
       -0.067075595 0.08798167 0.1214544 0.096628815
000110 d0 54 30 3d b8 ac 97 bc 24 36 33 bd 52 b4 db 3d
       0.043049634 -0.018514976 -0.043752804 0.10727753
000120 3a 5a c3 bd 52 a1 a1 3d 1c d7 bb 3d ac c4 25 bd
       -0.09538694 0.078920975 0.09171888 -0.040470764
000130 68 d1 c5 3c 78 9f e9 3d e4 91 2f 3d 98 66 dc 3c
       0.024147704 0.114073694 0.04286374 0.02690439
000140 ae d1 af bd bc b2 0f 3d ea d8 de 3d 00 ac 5c 39
       -0.08584915 0.035082564 0.10881217 0.0002104491
000150 8e 74 c1 bd 94 4b 9d bd 7a 1e 9f 3d 88 9b 22 bd
       -0.09446059 -0.07680431 0.07769485 -0.039699107
000160 58 ad 54 3d 36 7b ea 3d 3c f0 d9 3d 98 18 87 bd
       0.051923126 0.11449282 0.10641524 -0.06596488
000170 1a fb eb bd 16 eb eb 3d 96 f0 fc 3d 42 21 84 3d
       -0.11522503 0.115194485 0.123505756 0.06451656
000180 d6 58 eb 3d 68 9b e2 bc 58 87 e0 3d ea c4 ab 3d
       0.114915535 -0.027661994 0.10963315 0.08387168
000190 50 59 31 3d 96 2c c6 3d 80 ce 1e bc 76 c1 d5 3d
       0.043298066 0.09676473 -0.009692788 0.1043729
0001a0 0e b5 ca bd 0a 01 93 bd d0 7d 52 3d 80 3f ee 3b
       -0.09897815 -0.071779326 0.051389515 0.0072707534
0001b0 a2 3c a1 3d 3c 52 4b 3d c0 95 4c bd 60 18 e2 bc
       0.07872893 0.04963897 -0.0499475 -0.027599514
0001c0 7a d0 9b 3d 08 90 80 3d 64 62 3d 3d 84 a1 cf bd
       0.07608123 0.06277472 0.04623641 -0.101382285
0001d0 d0 dd 69 bc 4a 09 e9 3d 98 b7 37 bd 62 8a bb bd
       -0.014274076 0.11378725 -0.044852823 -0.09157254
0001e0 9e 4d bd bd de a2 bf bd 8c c9 13 3d 9c c2 bb bd
       -0.0924332 -0.09357236 0.036080882 -0.09167978
0001f0 14 5d 8d 3d 9e ef d8 bd c2 1f 86 3d 82 de b6 bd
       0.06902519 -0.10592578 0.06549026 -0.08929159
000200 54 77 52 3d 80 34 ad 3d e0 0d ab bd 68 9e d3 3c
       0.05138333 0.08457279 -0.08352256 0.02583237
000210 60 ce e7 3c 80 fa fe 3b 80 74 8b bd 88 64 70 3d
       0.02829665 0.007781327 -0.0680933 0.058689624
000220 48 68 56 bd 16 cf 96 3d c4 3d 71 3d 70 25 c2 3d
       -0.052345544 0.07363717 0.058896795 0.09479797
000230 8e 9f 9b bd ec 1f fb bd 22 a5 f8 bd 78 35 a4 bc
       -0.07598792 -0.12261948 -0.121408716 -0.020045027
000240 06 dd 95 3d 94 23 8d 3d 68 a0 40 3d 54 6d 74 3d
       0.073175475 0.068915516 0.047027975 0.059674576
000250 f4 6e ef bd 08 50 be bc 8c 50 35 bd a2 5e d4 3d
       -0.116910845 -0.023231521 -0.04426627 0.10369612
000260 10 b6 59 3d f4 c7 66 3d 48 f5 61 3d 18 06 fa bd
       0.053152144 0.056343034 0.05516556 -0.122081935
000270 80 35 8a bc 2e 1c be bd 72 35 86 bd ac 68 a6 3d
       -0.016871214 -0.092827186 -0.06553163 0.08125433
000280 42 fb 88 3d 28 ff 14 bd e8 e9 9e bd c4 f7 b5 3d
       0.066885486 -0.03637615 -0.07759458 0.08885148
000290 20 2f 44 3d 2c ed f1 bd 48 50 a2 bc 70 e7 61 3c
       0.047896504 -0.11812815 -0.019813672 0.013788089
0002a0 f8 0e 95 bc f4 c1 5a bd 40 57 6e 3b 06 2f 91 3d
       -0.018195614 -0.053407624 0.0036367923 0.07089047
0002b0 e0 ca b3 bb f2 7e 8c bd 90 04 c9 3c b0 65 94 3d
       -0.005486831 -0.068601504 0.024538308 0.07245958
0002c0 76 fe a4 3d 10 5b 30 bd 30 d0 fe bd 1a 86 af 3d
       0.08056347 -0.043055594 -0.12442052 0.085705
0002d0 da 70 d7 3d d0 2e 6e bc d2 12 84 3d 8e dc e3 3d
       0.105195716 -0.014537528 0.06448902 0.11126052
0002e0 64 5a 65 3d 64 56 f4 bd 60 72 28 bd 20 59 86 bd
       0.055994406 -0.1193054 -0.0411247 -0.06559968
0002f0 9c f3 ef 3d c0 46 79 3c b8 c2 5b 3d 3c 32 b5 bd
       0.11716387 0.015214622 0.053652495 -0.08847472
000300 80 f5 be 3b 8c c7 58 bd 64 97 a9 3d 28 ea 08 3d
       0.0058276057 -0.052924678 0.082808286 0.033426434
000310 ae a6 ad bd 2c 00 53 bd 28 30 ee 3d 34 75 9f bd
       -0.08479057 -0.051513836 0.11630279 -0.077860266
000320 40 36 46 3c b8 37 87 3d 46 5b 8e bd 2e 3b d9 bd
       0.012097895 0.066024244 -0.06951003 -0.10606991
000330 76 1c 94 3d b0 ac f5 bd 7c 02 15 3d cc 9f 72 3d
       0.07231991 -0.11995828 0.036379322 0.059234425
000340 9c 22 b1 3d 74 ba e3 bd 88 a3 4a 3d c0 e0 86 3c
       0.08649179 -0.111195475 0.04947236 0.016464591
000350 bc 2c c5 bd 60 dd 55 3c 14 49 b1 3d 20 2e f6 3b
       -0.09627673 0.013053268 0.08656517 0.0075128227
000360 20 d7 58 bc 2c 72 19 3d 44 c4 0a bd c0 a4 d3 3d
       -0.013234884 0.0374624 -0.03387858 0.10334158
000370 b8 14 0d bd d4 5b 81 3d 1a e9 ff bd 10 63 0e bd
       -0.034443587 0.06316343 -0.124956325 -0.034762442
000380 54 22 f5 3d e0 f4 76 3d 20 05 00 3c 64 9e 4f bd
       0.11969438 0.060292125 0.007813722 -0.050688162
000390 7a 3d 88 3d d0 39 13 3d c6 95 a1 bd a0 87 c7 bc
       0.06652351 0.035943806 -0.07889895 -0.024356663
0003a0 60 3c 4b bd 80 74 07 3b b0 17 66 3c d6 f8 d7 bd
       -0.049618125 0.0020668805 0.0140437335 -0.105455086
0003b0 a0 a1 8c bb 98 76 90 3c ae 19 f7 bd 46 5a 83 bd
       -0.004291728 0.017634675 -0.12065445 -0.06413703
0003c0 d6 4b 8a bd 10 04 e3 bd b8 72 dc 3c b8 ae d5 3c
       -0.06752746 -0.11084759 0.02691017 0.026084289
0003d0 34 9e e5 bd 36 ee ca bd 50 57 7b bd 3e 33 a3 bd
       -0.112118155 -0.099087164 -0.061362565 -0.07968758
0003e0 9c 76 f8 bd c8 ee 6b bd 80 dc 5c 3c 80 30 a7 3a
       -0.12131998 -0.057600766 0.013480306 0.0012755543
0003f0 40 b1 8a bd b8 05 54 3d 58 16 79 bd 80 b8 b0 bd
       -0.06772089 0.051763266 -0.060812324 -0.086289406

bias f4 [128]
000000 7c e5 fd 3d 20 82 e1 bd 8c 82 51 3d 9e 25 be bd
       0.12397286 -0.110111475 0.05114989 -0.09284519
000010 bc bd be bd 5c 69 ce bd c0 b5 58 3d 0e 09 a1 3d
       -0.09313533 -0.100786895 0.052907705 0.07863055
000020 60 53 54 bd 90 92 56 3d 38 db dd 3d 90 82 7d 3d
       -0.051837325 0.052385867 0.10832828 0.061892092
000030 86 0b a7 3d 0c 4f 91 3d 70 03 ad bc 28 e1 93 bd
       0.08156495 0.07095155 -0.021119803 -0.072206795
000040 90 cc 1c bd 18 d3 14 bd 40 ba a5 3b d8 3a de bc
       -0.038281024 -0.036334127 0.005057603 -0.027127668
000050 c8 e1 e6 3c 50 b9 24 3c 30 01 df bc d4 54 1d 3d
       0.028183833 0.010053948 -0.027222246 0.038410977
000060 56 5b b1 bd 92 8d c8 bd 50 a1 bb bd 08 63 fb bc
       -0.08659999 -0.097926274 -0.09161627 -0.03068687
000070 c0 bf d4 3d 46 27 b0 bd 8e c6 d3 3d 00 83 f1 ba
       0.10388136 -0.08601241 0.10340606 -0.0018425882
000080 aa e0 f8 3d 82 61 b7 bd 60 ab 9e 3d a4 06 3c 3d
       0.12152226 -0.08954145 0.07747531 0.04590477
000090 d4 14 7a 3d 6c 80 89 bd 0e 5c f4 3d fc f1 19 bd
       0.06105502 -0.06713948 0.119316205 -0.03758429
0000a0 f8 cd e2 3d 30 a5 80 bd f4 a1 40 3d 22 36 e5 3d
       0.11074442 -0.06281507 0.04702945 0.11191966
0000b0 4a a8 8e bd e8 9a b7 3c 48 f8 9d 3c 18 b6 e1 bd
       -0.06965692 0.022412732 0.019283429 -0.1102106
0000c0 34 43 e0 3d 58 9b 8c bd 1c ba 6e 3d 94 b7 c1 bd
       0.10950318 -0.06865567 0.058282956 -0.09458843
0000d0 e6 a2 a7 3d aa 42 b1 3d 80 79 dd 3b 9e 26 8d 3d
       0.08185367 0.08655293 0.0067588687 0.06892131
0000e0 40 99 4b bb 48 b9 d1 bd 08 2f 8a bc ba 27 d2 bd
       -0.0031066686 -0.10240418 -0.01686813 -0.102614835
0000f0 04 01 74 3d 34 97 77 bd ee 88 9a 3d 40 19 50 bb
       0.05957128 -0.060446933 0.075456485 -0.0031753331
000100 60 8a 58 bc d8 a4 14 3d 0c a9 1d 3d 2c 40 91 3d
       -0.013216585 0.03629002 0.038491294 0.07092318
000110 6c a1 11 bd dc 7b d9 3d 46 bd b5 3d 74 07 5c 3d
       -0.035554335 0.106193274 0.08873992 0.053718045
000120 80 86 3e bd 74 94 49 bd f8 ae 65 3d 62 88 89 bd
       -0.046514988 -0.04921384 0.056075066 -0.06715466
000130 dc 44 6d bd c8 6c b6 3c c8 8f e9 3c 74 42 a3 3d
       -0.057926998 0.022268668 0.028510943 0.07971659
000140 78 7b 94 3c d8 82 38 3d 60 b9 f7 bd 0c ae fc 3d
       0.01812528 0.045046657 -0.12095904 0.12337884
000150 4e 11 db bd f4 69 1b bd 40 a6 58 3b 40 e3 04 bc
       -0.1069666 -0.03794284 0.0033058077 -0.008110821
000160 18 f4 a3 3c 6c a6 d6 bd 3a 80 8f bd b0 32 c5 3c
       0.020013854 -0.10480961 -0.07006879 0.024072021
000170 c8 56 33 3d 8c 3b 82 3d 46 0e 95 bd da 02 d7 3d
       0.043783933 0.06359014 -0.07278113 0.10498591
000180 c4 fc b0 bd 50 2c 95 bd a8 1b ed bc 20 97 19 3c
       -0.08641961 -0.072838426 -0.028943852 0.00937441
000190 e0 2f 61 3c 5e c6 e5 bd 28 3a 24 bd a2 c9 dd bd
       0.013744324 -0.11219476 -0.040094525 -0.10829474
0001a0 b8 9f f7 bd 8e ad e7 bd e0 92 20 3c 00 ed e8 bb
       -0.12091011 -0.113124 0.009800643 -0.0071083307
0001b0 14 d3 6b bd 94 81 4e 3d 04 5a 02 3d b2 3e d3 3d
       -0.057574347 0.050416544 0.031824127 0.103146926
0001c0 10 72 39 bc 8e 50 d2 3d c0 4a 69 bc 64 50 83 3d
       -0.0113186985 0.10269271 -0.014239013 0.06411818
0001d0 00 d6 34 bb c0 e0 73 3d 10 96 01 3c 78 52 d0 bc
       -0.0027593374 0.05954051 0.007909313 -0.02542995
0001e0 76 a7 aa 3d 62 e8 ef bd ba d4 9d bd c0 98 1a bb
       0.08332722 -0.117142454 -0.0770659 -0.0023589581
0001f0 f0 fc 8b 3d f4 6b d1 bd 98 97 dc 3d d6 04 8b bd
       0.068353534 -0.102256685 0.10771102 -0.06788032

weight f4 [64, 128]
000000 4b f6 8c bd eb 88 d6 3c b1 c3 a7 bd b6 ce 58 bc
       -0.06882914 0.026188334 -0.08191622 -0.0132328775
000010 ab 1a 14 bd 55 c6 2f bc b7 3e 86 bc 2e e0 b3 3d
       -0.036158245 -0.010728438 -0.016387327 0.08782993
000020 d8 fb 17 bb 56 02 92 3d 31 08 e0 3c 65 c4 2b bd
       -0.0023190882 0.07129352 0.027347656 -0.041935343
000030 bc a1 53 3d 02 7f 9a bd 36 1d ad 3a ab 30 09 bc
       0.051667914 -0.07543756 0.0013207558 -0.00837342
000040 e2 55 69 bd 36 ca 00 bd 7b 9d 60 3c 01 80 14 bd
       -0.05696667 -0.031442843 0.013709421 -0.036254887
000050 c9 a9 9b bd 29 96 22 bd 75 b9 14 bd 06 43 6d bd
       -0.07600743 -0.039693985 -0.036309678 -0.057925247
000060 4c af 98 bd cc 52 89 bd 15 da 9f 3c c0 45 a4 bd
       -0.0745531 -0.067052454 0.01951317 -0.08021116
000070 58 67 ad 3d 77 2d b4 bd f9 27 8e bd 45 07 0b bd
       0.08466977 -0.08797734 -0.06941218 -0.03394248
000080 dc 1b 77 bd c4 69 55 3c b2 13 73 bd fc 75 3e 3d
       -0.060329303 0.013025705 -0.059344955 0.046499237
000090 20 96 53 bd 5f 0f 3f 3c fb 13 92 3c b3 fa 16 bd
       -0.051656842 0.01166138 0.017831793 -0.03686018
0000a0 bf df 50 bd 17 c5 49 3b 3d 31 90 bd 57 30 00 3d
       -0.05099463 0.003078764 -0.070406415 0.0312961
0000b0 1a c2 a5 bd 3e dd 38 3a 10 c0 be bc d1 35 85 3d
       -0.080936626 0.00070520106 -0.023284942 0.06504405
0000c0 d7 e8 6d 3d d3 0e 94 3c 43 dd eb b8 47 95 cc 3c
       0.05808338 0.018073475 -0.000112468864 0.024973525
0000d0 8e 3f 82 3d 00 16 7a bd c4 30 4f bd e9 6a 9a 3d
       0.06359778 -0.061056137 -0.050583616 0.07539923
0000e0 b9 34 2d 3b 8b 59 a7 bd 93 a9 b9 3c 58 6a cc bc
       0.002642913 -0.08171376 0.022663867 -0.024953052
0000f0 ec 8f f3 3c ce 91 16 3d a1 e9 66 3d 5a 94 c3 3c
       0.029731713 0.036760144 0.05637515 0.02387445
000100 f7 1a 98 bd f8 ab b7 3c d8 04 36 3d cd 73 94 bd
       -0.07427018 0.022420868 0.044438213 -0.0724865
000110 38 3b 9c bd 93 23 d7 bc 6f 1f 4a 3d 13 a1 51 3c
       -0.076284826 -0.02626208 0.049346384 0.012794751
000120 91 3e 9d bd 86 d6 e2 3c 5a 9b 72 bc da 62 4c bd
       -0.07677949 0.027690183 -0.0148075465 -0.04989896
000130 54 0a c4 3c f8 a3 9f 3d e7 71 9d bc 13 d7 9c bd
       0.023930706 0.077949464 -0.019219352 -0.0765821
000140 14 39 6b bd f2 37 e0 3c 9e 6a c6 bc d4 29 46 3d
       -0.05742748 0.027370427 -0.02422076 0.048379734
000150 bb 42 48 bd 67 4f 80 bd 65 b7 9e 3c 72 63 81 3b
       -0.048891764 -0.06265145 0.019374559 0.0039486224
000160 6b d7 3a bd 08 9b 1e 3d 0a 09 2c 3c dd 69 7d bd
       -0.045615595 0.038722068 0.010500202 -0.061868537
000170 ff 73 c4 3c 3b 69 69 bd 04 d2 6f bb 75 c3 ac bd
       0.023981092 -0.05698512 -0.0036593685 -0.08435718
000180 87 85 53 3d 9c d7 01 3d a5 f2 94 3b 5a f3 93 3d
       0.051641013 0.03169976 0.004545527 0.0722415
000190 7a cb 62 bc 59 0c 4b bc 21 ce 87 3d 99 95 aa bd
       -0.013842458 -0.012393081 0.06631113 -0.08329315
0001a0 7d 39 94 3d 24 cc 3c 3d 3e 24 e7 3c 2d 17 5e 3d
       0.072375275 0.04609312 0.028215524 0.05422132
0001b0 15 35 0c 3d 40 66 ff 3c 60 5d 84 3d ab 16 57 3c
       0.03423031 0.031176686 0.06463122 0.013127963
0001c0 b0 87 63 bd ee 1d 4a bd 00 53 3d 3d 96 4b 84 ba
       -0.055549324 -0.04934495 0.046221733 -0.0010093327
0001d0 1d d9 1e 3d 7f 08 8b bd a4 0b 8f 3d d2 e8 62 bb
       0.038781274 -0.0678873 0.06984642 -0.0034623635
0001e0 71 68 37 3d 0d 49 ad 3d de a9 ac bd 0f 19 72 bd
       0.044777337 0.08461199 -0.08430837 -0.05910593
0001f0 f7 4e 17 bd e1 90 33 3c 24 d4 ff 3c 88 9d c1 bc
       -0.03694054 0.010959835 0.031229086 -0.023634687
000200 20 23 a4 3d cf c8 96 bd 93 56 9e bd 42 db b3 3a
       0.08014512 -0.0736252 -0.077313565 0.001372196
000210 50 1e a8 bd bd be 57 3c 11 b4 aa bd d4 dd aa 3d
       -0.08208907 0.013168034 -0.08335126 0.083430916
000220 fe a5 22 bd a4 48 2d bd ee 78 ac bd f0 70 e3 bb
       -0.039709084 -0.042305604 -0.08421503 -0.0069409534
000230 b9 6b 87 bc d0 19 fc bc 85 ae e4 bc bc 17 06 bd
       -0.016530858 -0.030774027 -0.027915249 -0.03273748
000240 07 08 77 3d fb 1d 0c bc ac 02 53 3c 51 a6 30 3d
       0.06031039 -0.00855207 0.012879055 0.04312736
000250 17 1e 30 3d a2 fd 76 3d 81 ed 1b bc fb 60 9c bc
       0.042997446 0.060300477 -0.009517075 -0.019089213
000260 08 ec 8e 3d 78 c7 53 3c 89 b5 c4 bc 75 5f a0 bc
       0.06978613 0.012925975 -0.024012344 -0.019576767
000270 8f 80 42 3d b6 2f 1d 3d eb e7 af bd f0 22 08 bd
       0.047485884 0.03837558 -0.08589157 -0.033236444
000280 34 dd a7 bd dc 29 a3 3c d0 97 51 bd d0 29 9c bd
       -0.08196488 0.019917421 -0.05117017 -0.076251626
000290 0b ec f4 3b 7b ff 9d bc ee 8e 81 3c 47 1a 19 bd
       0.0074744276 -0.019286862 0.015815224 -0.037378576
0002a0 78 06 e0 3c 23 8c 3c 3d b6 62 82 bb d8 07 9c 3b
       0.027346835 0.046032082 -0.0039790524 0.0047616772
0002b0 36 cb 3a 3d 81 55 9a 3c 43 83 43 3d f0 d5 a2 3d
       0.045603953 0.0188396 0.047732603 0.079509616
0002c0 52 1e 1b 3c 1f fd 61 3d d5 c8 08 3d 37 15 52 3c
       0.009467678 0.055173036 0.033394653 0.012822441
0002d0 fb ce 68 bc 35 b5 cc 3c 72 4d 60 bd 0a 14 fd 3b
       -0.014209504 0.02498875 -0.054761358 0.007723336
0002e0 64 34 5f 3d 20 1d 93 bc 48 90 1a 3a dd 2b 15 bd
       0.054493323 -0.017958224 0.00058961334 -0.036418784
0002f0 f1 89 0f bd 10 fe 92 3d 41 54 d3 3c a2 19 5f 3c
       -0.03504366 0.07177365 0.025797011 0.013616951
000300 46 71 8f 3d b3 0c a1 bc 17 aa 80 3d c4 fd 97 3d
       0.07004027 -0.019659376 0.06282442 0.07421449
000310 f9 f0 04 3d 7c 30 b4 3d c2 6c cf 3c f0 b1 ac 3d
       0.032456372 0.0879831 0.025320414 0.084323764
000320 ab 05 b4 bd 3d ef 60 ba 43 a7 7b 3d fc e0 ed bc
       -0.087901436 -0.0008580571 0.06143881 -0.029037945
000330 3d 4e 49 3d 1a e0 47 bd 0f fa 6c 3d bf fa bb bc
       0.04914688 -0.048797704 0.057855662 -0.022946713
000340 00 f2 a2 bd 4a 01 2b bc 17 4a 68 bc c8 a3 0b 3a
       -0.07956314 -0.010437319 -0.014177821 0.00053268345
000350 02 89 77 3c 5f 0d e3 3c d2 c2 e1 3c a5 19 52 bd
       0.015108349 0.027716337 0.027558718 -0.051293988
000360 06 f1 22 3d ab fd 4b bd f1 21 7a bd a6 0a d3 3c
       0.03978064 -0.049802464 -0.061067525 0.025761914
000370 ec 21 93 3c 0c e9 dd bc f7 ff 8b 3d 0b 08 a1 bd
       0.017960511 -0.027088664 0.06835931 -0.07862862
000380 18 63 7f 3a de c9 91 bd 6d 52 8a 3d 9a 31 4b 3d
       0.0009742244 -0.07118581 0.06754003 0.04960785
000390 c4 22 99 bd 1c 82 d2 bc fc bb f3 3c 9d 83 b0 3c
       -0.07477334 -0.025696807 0.029752724 0.021547133
0003a0 87 2e 02 bd 9f 75 01 3d ee 4e 8f bc 68 11 90 bc
       -0.031782653 0.031606313 -0.017493691 -0.017586425
0003b0 55 22 98 3d db 4d 27 bc b8 3e 9a 3c 08 cf 97 bb
       0.07428423 -0.010211433 0.018828735 -0.0046328343
0003c0 bb e2 67 bd 66 e5 29 bd ba 9d 88 3d fc 9d 95 3c
       -0.05661271 -0.041478537 0.06670709 0.01826381
0003d0 c6 5c 1a 3d 33 3b 92 bd 54 cc 29 bd 84 99 81 3d
       0.037686132 -0.071401976 -0.041454628 0.06328109
0003e0 d4 eb a9 3d c1 a3 a1 bc 66 4e 98 3b 39 2b 50 3d
       0.08296934 -0.019731404 0.0046480177 0.05082247
0003f0 d4 f4 30 3d 65 b1 39 3d 09 4c db ba 03 5c a7 bd
       0.043202236 0.045335192 -0.0016731034 -0.08171847

bias f4 [64]
000000 39 36 3a 3c 92 5c 7b bd dd 23 78 3c b4 21 a2 bd
       0.011365467 -0.06136758 0.015145269 -0.079165846
000010 7e e1 50 3d 10 65 39 bd 85 d9 10 bd be b1 9c 3d
       0.050996296 -0.045262396 -0.035363693 0.07651089
000020 ff d0 13 bd 34 39 ed bc d8 fe b1 3d 0e 90 30 3d
       -0.036087986 -0.02895794 0.08691186 0.04310613
000030 bc f6 83 3a e8 62 8c bd f8 e5 71 3d 53 a4 07 bd
       0.0010068039 -0.06854802 0.059057206 -0.033115696
000040 7c 89 94 bc 86 90 7b 3d b8 f8 08 3b cd ca a4 bd
       -0.018131964 0.061417125 0.00209002 -0.08046494
000050 0f 18 21 3b 21 0d 88 3d 2a 8d 9b bd f1 d7 66 bd
       0.002458099 0.06643129 -0.07595284 -0.05635828
000060 fe 56 92 3d 57 33 18 bd 49 2a fe 3c 2e 0e 86 bd
       0.07145499 -0.037158336 0.031026023 -0.06545673
000070 74 63 87 3d 31 0b cc 3c ad 72 99 bd 5f 3f 18 3b
       0.06610766 0.02490768 -0.07492576 0.0023231131
000080 64 cb 9d bd 93 10 a4 bc eb 7e 87 bd 9b 9f 98 3c
       -0.07704809 -0.020027434 -0.066160046 0.018630793
000090 7a 75 1e bd b2 dc 22 3c 49 8c 2c bd 82 45 bf 3c
       -0.038686253 0.009940313 -0.042125974 0.023348574
0000a0 be f8 29 3c f3 9d 26 bd 0a 66 82 3d c2 b1 ab b9
       0.010374246 -0.040677976 0.06367119 -0.00032748102
0000b0 45 8a bc 3c 98 d2 64 bd 13 38 80 bc b5 48 99 bd
       0.02301515 -0.0558649 -0.015651738 -0.07484571
0000c0 80 c3 55 3d 0f 91 04 bc c6 50 c0 3c ac 05 58 bd
       0.052188396 -0.008091225 0.023476016 -0.052739784
0000d0 48 8c 5b 3d 42 5e 89 3d 51 3e 83 bd 8c 2e 8b bd
       0.05360058 0.067074314 -0.0640837 -0.067959875
0000e0 4c 14 2c 3d 1e 2c 39 bd 1b ae 45 3d dd 76 2c 3c
       0.042011544 -0.04520809 0.048261743 0.010526386
0000f0 6b b2 64 3d 7d ba 80 3c 21 e6 84 bd 64 25 85 bd
       0.055834215 0.015713925 -0.06489206 -0.06501272

weight f4 [64]
000000 00 00 80 3f 00 00 80 3f 00 00 80 3f 00 00 80 3f
       1.0 1.0 1.0 1.0
000010 00 00 80 3f 00 00 80 3f 00 00 80 3f 00 00 80 3f
       1.0 1.0 1.0 1.0
000020 00 00 80 3f 00 00 80 3f 00 00 80 3f 00 00 80 3f
       1.0 1.0 1.0 1.0
000030 00 00 80 3f 00 00 80 3f 00 00 80 3f 00 00 80 3f
       1.0 1.0 1.0 1.0
000040 00 00 80 3f 00 00 80 3f 00 00 80 3f 00 00 80 3f
       1.0 1.0 1.0 1.0
000050 00 00 80 3f 00 00 80 3f 00 00 80 3f 00 00 80 3f
       1.0 1.0 1.0 1.0
000060 00 00 80 3f 00 00 80 3f 00 00 80 3f 00 00 80 3f
       1.0 1.0 1.0 1.0
000070 00 00 80 3f 00 00 80 3f 00 00 80 3f 00 00 80 3f
       1.0 1.0 1.0 1.0
000080 00 00 80 3f 00 00 80 3f 00 00 80 3f 00 00 80 3f
       1.0 1.0 1.0 1.0
000090 00 00 80 3f 00 00 80 3f 00 00 80 3f 00 00 80 3f
       1.0 1.0 1.0 1.0
0000a0 00 00 80 3f 00 00 80 3f 00 00 80 3f 00 00 80 3f
       1.0 1.0 1.0 1.0
0000b0 00 00 80 3f 00 00 80 3f 00 00 80 3f 00 00 80 3f
       1.0 1.0 1.0 1.0
0000c0 00 00 80 3f 00 00 80 3f 00 00 80 3f 00 00 80 3f
       1.0 1.0 1.0 1.0
0000d0 00 00 80 3f 00 00 80 3f 00 00 80 3f 00 00 80 3f
       1.0 1.0 1.0 1.0
0000e0 00 00 80 3f 00 00 80 3f 00 00 80 3f 00 00 80 3f
       1.0 1.0 1.0 1.0
0000f0 00 00 80 3f 00 00 80 3f 00 00 80 3f 00 00 80 3f
       1.0 1.0 1.0 1.0

bias f4 [64]
000000 00 00 00 00 00 00 00 00 00 00 00 00 00 00 00 00
       0.0 0.0 0.0 0.0
000010 00 00 00 00 00 00 00 00 00 00 00 00 00 00 00 00
       0.0 0.0 0.0 0.0
000020 00 00 00 00 00 00 00 00 00 00 00 00 00 00 00 00
       0.0 0.0 0.0 0.0
000030 00 00 00 00 00 00 00 00 00 00 00 00 00 00 00 00
       0.0 0.0 0.0 0.0
000040 00 00 00 00 00 00 00 00 00 00 00 00 00 00 00 00
       0.0 0.0 0.0 0.0
000050 00 00 00 00 00 00 00 00 00 00 00 00 00 00 00 00
       0.0 0.0 0.0 0.0
000060 00 00 00 00 00 00 00 00 00 00 00 00 00 00 00 00
       0.0 0.0 0.0 0.0
000070 00 00 00 00 00 00 00 00 00 00 00 00 00 00 00 00
       0.0 0.0 0.0 0.0
000080 00 00 00 00 00 00 00 00 00 00 00 00 00 00 00 00
       0.0 0.0 0.0 0.0
000090 00 00 00 00 00 00 00 00 00 00 00 00 00 00 00 00
       0.0 0.0 0.0 0.0
0000a0 00 00 00 00 00 00 00 00 00 00 00 00 00 00 00 00
       0.0 0.0 0.0 0.0
0000b0 00 00 00 00 00 00 00 00 00 00 00 00 00 00 00 00
       0.0 0.0 0.0 0.0
0000c0 00 00 00 00 00 00 00 00 00 00 00 00 00 00 00 00
       0.0 0.0 0.0 0.0
0000d0 00 00 00 00 00 00 00 00 00 00 00 00 00 00 00 00
       0.0 0.0 0.0 0.0
0000e0 00 00 00 00 00 00 00 00 00 00 00 00 00 00 00 00
       0.0 0.0 0.0 0.0
0000f0 00 00 00 00 00 00 00 00 00 00 00 00 00 00 00 00
       0.0 0.0 0.0 0.0
